NLP Grammar Checker/models/grammar_checker_model.pth (torch, 161031 bytes, 11 tensors)

embedding.weight f4 [92, 8]
00000000: 4b73 4ebf d0a9 e9bf 7700 e2bf da61 713f
00000010: 9646 51bf 9dce 0c40 3342 de3f 4c7b db3d
00000020: 904c a1bf 3c61 183f 369d e43e 4751 71be
00000030: c793 b4bf dd93 9fbf 3cf9 32bf edf1 b83d
00000040: 44a5 3bbf cef6 5dbe d945 ac3f 7173 0cbc
00000050: 7652 3c3f c676 3fbf eb6d fc3d 0f2d 853f
00000060: ee46 07be 0ade 2bbf 4d63 23be 3e96 bfbf
00000070: 77fa 90be d57d 143e 9049 993f b4d6 c83e
00000080: 5872 a33f f873 7c3f 7cef cebd bf62 90bf
00000090: 5893 d53f 8965 813f b5a6 1e3e 8631 34bf
000000a0: 405c 8c3f 8b97 9dbf 681d 3cbf 83e9 9abe
000000b0: 1a0c ff3f b033 e4be 2200 803f 2690 303f
000000c0: 209e 223f 8e8d a03e fc72 9e3f cd7e 303e
000000d0: f803 de3e 1d55 c3bf 80c5 87bf da8e 8ebe
000000e0: 01e9 633e eff6 2340 ecf4 2c40 22e9 ae3f
000000f0: eed0 8cbf d298 ec3f 2d3f a8bd ef8f 62bd
00000100: 31d8 d3be 9004 34bf ea60 923f 601d 7d3f
00000110: 293c 58be 8190 3c3e 2746 a0bf 4ed4 9dbf
00000120: 7535 453f 4948 153f 73be 023f c7be ef3e
00000130: 4b07 00c0 831c f03f 09bb 383e 5451 1b40
00000140: 6f7d 2b3f 7f3a aa3e 3b7b af3d e37f 263f
00000150: 4cf1 723f 4bbf 583f 5ef2 103e 7073 84bd
00000160: 9409 e23f 3471 b73f 51f8 003d a392 acbf
00000170: 0712 d63e cdd6 1d3e b001 af3e d563 2cc0
00000180: 82ad d3be aef6 03bf a489 bd3e 377a 0e40
00000190: 387f 21c0 9c8b 2ebe 53c5 0dbf e9d6 b13e
000001a0: 8a76 73bf de8b 833f 1130 313f 29b2 8cbe
000001b0: cd98 1dbf 2a28 e3be 63a6 c93f 0b76 da3e
000001c0: 6740 d93d a66f 43bf 112c 85bf 3608 78be
000001d0: bc15 bcbe 6230 0f3e a47c 29bf 5fa4 363f
000001e0: 8ba9 e73f cdf4 c83d 4cfc c7bf a792 c83e
000001f0: 462b 7dbf 489c 7cbe 2d63 ff3d 5db9 2ebe
00000200: d830 ea3f 9842 2abf b82e b33f ea89 b23f
00000210: d6ca 343f 2288 f1be 01c4 ae3e 54ce d73f
00000220: b4bc 33bf 9ddb 11bf 5c58 2b3f b3e7 e43e
00000230: 2312 5e3f 80e7 9cbf c5cd 043f d46e 623f
00000240: b9c4 6b3f 9d02 96be 406a 49bf 98b0 033f
00000250: dd14 0cbf 19a1 d93f 4979 dbbd c49d ee3f
00000260: 9802 54bf 1792 df3e 8bbd 27bf 8259 b7bf
00000270: a4db de3e f468 0fbf 2410 893f 3358 d63d
00000280: fe40 8fbf 2dde 4a3e a1e7 cc3f 803c 5f3f
00000290: 511f 06c0 d0bd 84bd 1094 853f 7fbc 2bbf
000002a0: e348 95bf 912b 553d bf76 87bf 2507 bf3f
000002b0: d4a0 613f 801e 143f 4a13 12bf 5932 d83f
000002c0: a487 40be 1e58 b13b 4bc9 23be 0823 e3bf
000002d0: 9af8 97bf 35a1 eb3e fc69 aabf 6328 4b3e
000002e0: 5f4e 3d3d c78c a53f 9a05 55be 70ef 6abf
000002f0: 94aa 303e c34e 68be 9c82 16bf 91d2 8bbe
00000300: 1986 e6be f294 e63b 219f 133f 94c1 ddbf
00000310: 1247 ba3f 0de7 1a3e daf4 6bbf 0a62 85be
00000320: 2b1b 0440 0e13 8c3f 2283 5a3e 2983 89b9
00000330: ca36 013f 34c4 0c3f 3a6b 063e f029 7c3f
00000340: b2b6 4abf 4c4d 1abf bd67 10bf 2aed 0ebf
00000350: 75f7 8c3f ffb3 06be 9b98 a3be 8a6e 983f
00000360: 9131 68bf 32e0 bebf 1329 4040 b406 b2bf
00000370: 64fe 9f3e 7166 28be 32f7 3abf da70 cd3d
00000380: 20ae 36bf 5e38 47bf fe4c 233f a308 963f
00000390: e69d 0ebf 36be 213f 9e8a 353f 9ae7 113f
000003a0: 6d89 8bbe af15 103e 6087 1940 b3d1 6d3f
000003b0: 7936 513f 3985 73be 9988 aebd 9e7b b0bf
000003c0: 408c 1f3f c744 bbbf b7e3 453e 417f 033e
000003d0: 23b3 64bd 3954 673e 1d98 48bf 7fe1 973f
000003e0: 3b93 b1bf c402 863f 9917 b8bf d579 74bf
000003f0: 2e20 bf3e 409d 50be 4b1d 043e 0f2b cc3d
-0.80644673 -1.8254948 -1.7656392 0.94289935 -0.8174833 2.2001107 1.7363952 0.107168764
-1.260149 0.5952337 0.44651192 -0.23566161 -1.4107598 -1.2466999 -0.6991155 0.09030519
-0.7329905 -0.2167618 1.3458816 -0.008572445 0.73563325 -0.7479061 0.12325653 1.0404376
-0.13210651 -0.6713568 -0.15955849 -1.4967725 -0.2831609 0.14501126 1.1975574 0.39226305
1.276927 0.98614454 -0.10104272 -1.1280135 1.6685591 1.0109111 0.15493281 -0.70388067
1.0965652 -1.2311872 -0.7348237 -0.3025628 1.9925568 -0.44570684 1.000004 0.68969953
0.6352253 0.31357998 1.237884 0.1723587 0.43362403 -1.526035 -1.0607147 -0.27843362
0.22256853 2.5619466 2.7024488 1.3664896 -1.100126 1.8484137 -0.08215175 -0.055313047
-0.41375878 -0.7031946 1.1435826 0.9887295 -0.211167 0.18414499 -1.2521409 -1.2330415
0.77034694 0.58313423 0.5107185 0.4682524 -2.0004451 1.8758701 0.18040098 2.4268389
0.6698827 0.33247754 0.08568426 0.6503889 0.9489944 0.8466689 0.14154956 -0.064673305
1.7659173 1.4331422 0.031486813 -1.348225 0.4181063 0.15413971 0.34180975 -2.6935933
-0.41343313 -0.5154828 0.37019074 2.2262094 -2.5233898 -0.17045444 -0.5537922 0.34734276
-0.9510275 1.0277059 0.6921397 -0.27479675 -0.6156128 -0.4436658 1.5753902 0.42668185
0.10607987 -0.76342237 -1.0404073 -0.24221882 -0.36735332 0.139833 -0.6620581 0.7134456
1.8098615 0.09812317 -1.562387 0.39174387 -0.98894155 -0.24668992 0.12470088 -0.17062898
1.8296156 -0.66507864 1.3998632 1.3948338 0.70622003 -0.47174174 0.34133914 1.6859841
-0.70209813 -0.5697573 0.669317 0.44708022 0.86746424 -1.2258148 0.5187648 0.8845036
0.9209705 -0.2929887 -0.7867775 0.51441336 -0.54719335 1.7002288 -0.10716493 1.8641896
-0.8281646 0.43666145 -0.65523595 -1.4324191 0.43526947 -0.5601952 1.0708051 0.104660414
-1.1191709 0.19811316 1.6008188 0.8720169 -2.0956614 -0.06481516 1.043581 -0.670845
-1.1662868 0.0520435 -1.0583113 1.4924055 0.8813603 0.5785904 -0.5706068 1.6890365
-0.18801743 0.0054121157 -0.15994756 -1.7745066 -1.1872742 0.4602143 -1.3313594 0.19839625
0.04621732 1.2933587 -0.20802918 -0.917716 0.1725257 -0.22686295 -0.58793044 -0.27309087
-0.45024183 0.0070367986 0.57664686 -1.73247 1.4552939 0.15127201 -0.9217049 -0.2605136
2.0641582 1.0943315 0.21339086 -0.00026228398 0.50474226 0.5498688 0.13126841 0.9850149
-0.7918502 -0.60274196 -0.5640829 -0.55830634 1.1013018 -0.131546 -0.31952366 1.1908734
-0.9070063 -1.4912169 3.002507 -1.3908296 0.31248772 -0.16445328 -0.7303344 0.1003129
-0.71359444 -0.77820385 0.63789356 1.1721386 -0.55709684 0.63180864 0.7091464 0.5699402
-0.27253285 0.14070772 2.3988876 0.928981 0.81723744 -0.23781289 -0.08522148 -1.3787725
0.6232338 -1.4630364 0.19325148 0.12841512 -0.0558349 0.22590722 -0.78357106 1.1865691
-1.3873056 1.0469594 -1.4382201 -0.954984 0.3732924 -0.20372486 0.129018 0.0996915

lstm.weight_ih_l0 f4 [256, 8]
00000000: d083 9b3b 829b 2a3d 2681 cd3c 74d7 f7bd
00000010: 6acb 333e 3e04 5b3e 4b1e 6abe 88a5 43bd
00000020: ee22 00be b512 0ebd 438a 13be ce1d 01be
00000030: 41e1 1cbe f630 fd3d 6ad0 98bc 819d 83bd
00000040: 5231 07be ff7a 98bd 2109 b0bd 6454 a53d
00000050: bbfc 50be 1b4c 013e c130 493e e62f 6ebd
00000060: 8d77 10be 2f0b 0ebe 4165 07bd 3893 a03b
00000070: 3c92 563c 61e7 da3c c9ba 003e e0f8 9b3c
00000080: 3f78 39be f939 2a3c a860 e1bd b788 83bd
00000090: 87dd 18bd 50c4 87bd 864b ee3d 656a fd3d
000000a0: b31c 57bd 9ea7 31be 5ac8 cabd ff6f a8bc
000000b0: c75b 81be 0b8f 7a3d 6bd2 423e 0d49 bbbb
000000c0: 0d32 07bd 4f2f 10be ffcd 0ebe 1688 813d
000000d0: 0770 19bd 7771 db3d 58b7 4f3e bb6e 9f3d
000000e0: 3eef 31be b637 32be dc5a 47bd a8a5 12be
000000f0: fd54 443d 3094 473c 0806 0d3e 4038 c53d
00000100: d144 d8bd 7ba8 e8bc bd2a 5dbe be29 e4bc
00000110: 4ab7 14be 1c99 eabd 1346 883e a7b6 13be
00000120: 6b0c 62be 6d83 dcbd f5e8 22be e6a2 b9bb
00000130: db34 e6bb 66c2 8f3e 07c6 06bd 61f9 453e
00000140: 3a0e 023c b32d 18be c0b1 bbbd 3e37 a43d
00000150: 1453 89bd 92db 093e dcf5 88bd 9aa4 033e
00000160: f700 f7bb 43b6 a2be 952c 04be 745a 093d
00000170: ba82 4abe 1397 083d 03de 9d3d 623e 3dbc
00000180: dfd8 acbd 4220 f5bc 6b4b d2bd 14a6 cabb
00000190: b964 d8bd 82a6 033e a785 973d 05f5 5e3c
000001a0: cafe ffbd 4c9d c93c 7449 e2bd 94aa 54bd
000001b0: be41 2f3d afed 1d3e cc21 7cbb f23f fcbd
000001c0: d530 44be b662 93be 8cee 963d c927 4a3d
000001d0: bece ccbd 0139 763d e063 d53d 4ab4 7fbc
000001e0: 86a4 d1bd 5ca7 46bd 21a8 f4bd 3a2a e6bd
000001f0: b1a7 1f3c 8d7c 083e 1258 a03d f967 d53d
00000200: 2ecc 23be 6296 a4bd b38f 66be a9c9 dbbd
00000210: e9d4 7bbd 8c58 823d 68ca a43d cbf7 52bd
00000220: ffb6 debc 8807 8fbe 0a58 0d3d f479 1a3d
00000230: 5c27 c3bd b68b 973d c0c4 5bbd 42e5 cd3d
00000240: 1500 67bc c1cc cf3d 4541 083e e3e5 a03d
00000250: 3085 36bc a790 043e 2c57 c8bd bfa1 5d3d
00000260: 1689 203d 3de3 3fbe c6d9 183c dee0 293d
00000270: 9674 5abe 7a44 343e 78ac 8a3d 2ccc e23d
00000280: 5750 323d efb1 ccbd e467 86bd 7cca f03d
00000290: 5519 0abe 2324 6c3e 70cf 85bc 6a86 c03d
000002a0: 5718 1ebe d81e 05be 6dfc ccbd bf19 b53c
000002b0: b29e e9bd af45 63bd 59a3 2b3e 89b6 9ebc
000002c0: 6f58 b43d df79 1dbe 6c4e 2fbd 16cc 23bc
000002d0: 2aa8 e0bd 662b 243c ca0a 403e 68d9 5cbe
000002e0: d582 05be a768 8e3d 5f58 92bb e118 cc3d
000002f0: 08ab 61bd 6344 3f3e 3f01 8e3d de3b 3a3c
00000300: 3055 8fbc b135 f53d 2475 66bd a378 a53d
00000310: bfbd fa3c f9ed 123e 3ffc e4bd 02bb 65bd
00000320: 65d5 22bd 9325 cebd e2b3 cd3c 56a3 86bd
00000330: 5714 0dbd 7c1f 9bbd 7997 8a3e 4898 d23c
00000340: c144 21bd 01fd acbc 79e7 f1bd 30e5 c23c
00000350: fe41 14bb c760 923d d0dc 13bd 4011 cfbd
00000360: ae9e 4f3d 5aa0 ae3d 8a2f 7e3d cb6e f4bd
00000370: 5ea7 493d e183 943d 5415 93be de51 dcbc
00000380: e169 d8bb 2b34 02be 5c30 0abe 9aa9 903d
00000390: b8f9 393e de60 223e 5d47 e5bd fdcf 673d
000003a0: 80ec 27be d1e4 41be ccf1 e9bc c9b1 11be
000003b0: cd93 933d bd14 793c 43ba ac3d 1ac8 09be
000003c0: d5cb 31be 61ff 02be 2193 ccbd 9df3 0b3e
000003d0: f708 86be 180b 233e b397 793d a8db bbbc
000003e0: 4ec2 99bd 3d53 b3bb c508 b73d cb47 f8bc
000003f0: 7732 cebd 5010 9d3d 7b0b bd3d 45d3 f83d
0.004745938 0.04165221 0.025085997 -0.12101641 0.17558065 0.21388337 -0.22863118 -0.047765285
-0.12513325 -0.03468581 -0.14408211 -0.12609026 -0.15320303 0.12362854 -0.018654067 -0.06426526
-0.13202408 -0.07445335 -0.08595491 0.08072737 -0.20408909 0.12626688 0.19647504 -0.05815115
-0.14108105 -0.13871454 -0.033055548 0.0049003623 0.013096388 0.026721658 0.12571253 0.019039571
-0.18112276 0.010389798 -0.11004764 -0.06422561 -0.03732064 -0.066292405 0.11635499 0.12373809
-0.052517604 -0.17349097 -0.09901495 -0.020561216 -0.25265333 0.061171573 0.1902558 -0.0057154954
-0.033006717 -0.14080547 -0.13945769 0.063247845 -0.037460353 0.10715001 0.20284784 0.07784792
-0.1737642 -0.17404065 -0.048670635 -0.14321005 0.047932614 0.012181327 0.13771832 0.096298695
-0.10560001 -0.02840065 -0.21598335 -0.027851935 -0.14523044 -0.114549845 0.26615962 -0.14425145
-0.2207505 -0.10767255 -0.15909179 -0.005665171 -0.007025344 0.28078002 -0.032903697 0.19333412
0.007937962 -0.14861183 -0.091647625 0.08018349 -0.06705299 0.13462666 -0.06687519 0.1285576
-0.007537957 -0.3177968 -0.12907632 0.03353353 -0.1977643 0.0333472 0.07708361 -0.011550518
-0.084398024 -0.029922608 -0.10268291 -0.006184349 -0.10566086 0.12856486 0.07398539 0.013608222
-0.12499769 0.024611138 -0.11049166 -0.05192049 0.042787306 0.154227 -0.0038472293 -0.12316884
-0.19159253 -0.28786248 0.07369718 0.04935435 -0.100003704 0.060112957 0.1041944 -0.015606949
-0.102364585 -0.04849945 -0.119461305 -0.11238523 0.009744571 0.13328762 0.07829298 0.10420222
-0.15995857 -0.08036496 -0.22515754 -0.10731823 -0.061482344 0.06364545 0.080464184 -0.051505845
-0.027186869 -0.27935433 0.03450779 0.03771396 -0.095289916 0.073996946 -0.053654432 0.10053493
-0.014099141 0.101464756 0.13306148 0.078563474 -0.011140153 0.12945805 -0.09782252 0.05410933
0.039193235 -0.18739028 0.009329265 0.041474216 -0.21333537 0.17604247 0.06771177 0.11074099
0.04353365 -0.09994876 -0.06562784 0.11757371 -0.13486226 0.2306066 -0.016334265 0.094006374
-0.15438972 -0.13000047 -0.10009084 0.022107003 -0.11407222 -0.055486377 0.16761531 -0.019374149
0.0880593 -0.15378521 -0.0427994 -0.009997388 -0.10969575 0.010020113 0.18754116 -0.21567309
-0.1303819 0.069535546 -0.004466101 0.09965683 -0.05509475 0.18678431 0.069338314 0.0113668125
-0.017496675 0.119731314 -0.056264058 0.0807965 0.030608056 0.14348592 -0.111809246 -0.056086548
-0.03975429 -0.100657605 0.025110189 -0.065741226 -0.034443226 -0.075743645 0.2706869 0.025707379
-0.03937221 -0.021116735 -0.11811728 0.023790926 -0.0022622342 0.07147365 -0.036099255 -0.10110712
0.050688438 0.085266784 0.062057056 -0.119351946 0.04923188 0.072517164 -0.2872721 -0.026894506
-0.0066044186 -0.12715213 -0.1349501 0.07063599 0.18161666 0.15857264 -0.11195252 0.056594837
-0.16398811 -0.18934943 -0.02855768 -0.14227976 0.07205925 0.015202698 0.08433964 -0.13455239
-0.17362912 -0.12792732 -0.09989 0.1366715 -0.26178715 0.159222 0.060935687 -0.022931889
-0.07507764 -0.0054725693 0.089372195 -0.030307671 -0.10068219 0.07669127 0.09230705 0.121496715

lstm.weight_hh_l0 f4 [256, 64]
00000000: c573 113d 0924 663c 7c32 de3d 76a6 03be
00000010: 505a 0e3d f508 18be 5a8e 613e 87b0 92bd
00000020: b691 583e e4cc 35bd fcc9 24ba f193 6cbe
00000030: f4eb 673d 0309 853d 949f 73be 9b54 123e
00000040: 0ab3 25be 7d55 a9bd a4d9 2a3e 4e85 29be
00000050: 115c 933c 3265 3cbe beb6 4dbe 4281 e13d
00000060: 628c e03d bc7b 80bd 842c 88bd 01b4 dbbd
00000070: 840b 66bd 70e1 f73d 9f29 153e 8241 f63a
00000080: 6ab8 9e3d f656 a5ba e190 d6bd 6189 f5bc
00000090: 2f44 33be 1529 cf3d 6ecb da3d 2e34 2f3e
000000a0: 7faa c73d 8b62 81bd ff6a 713e c73d b6bb
000000b0: 88f1 353e e8b6 f0bd bc67 01bb 9ce1 acbc
000000c0: 3d3c 65be 6cbf fcbc 18db c8bd d007 f0bb
000000d0: 38d2 93bd bf0d 12be 61d2 923d 5242 073c
000000e0: 95e0 0cbe 86f8 bb3d 9f01 203e bca8 9d3d
000000f0: 29df 55bd bd8b e9bc 09bc afbc 8ec5 11be
00000100: 8892 9d3d f979 5dbd bb56 a93d 8089 bebd
00000110: 35ca d13d a7e7 f4bd 3624 913e bf46 543b
00000120: 5889 4a3e be69 913d 8bea b8bc 523a 28be
00000130: f629 8a3e 6592 c53c 717f 09bd 6bad 48be
00000140: 1b2e a4be 5edf df3d a52c 2b3e 2839 cb3d
00000150: f88d f7bd 8254 3dbd 673f a1be bee7 18be
00000160: 2b25 b93c aca5 24bd b62b 803e de4e 79be
00000170: 0325 0cbe a11a 663e 7976 c43c de8c 893e
00000180: ed7e 8a3e 8d25 33be 563f 99bd b5d3 46bd
00000190: c4a0 71bc 86ea bdbb 1292 993e c3d6 173d
000001a0: db22 c73d 4c13 163d 6590 ce3d a402 0e3d
000001b0: 88ce ad3d 900b 75be 5826 203e 1416 56bd
000001c0: 2529 c9bd ec4b 87bd df0c 0cbe 88f0 6dbd
000001d0: 5de0 693d 7540 8d3a 71b9 ab3d dc4a 213d
000001e0: 3962 9cbe d87c 153e 321b 453e fbc8 923e
000001f0: aec1 4ebe b203 103e 1f78 87be f492 45be
00000200: 3bf2 123c dba3 e63d 2a8d 98bb a69f 02be
00000210: 6689 1dbe bf48 9dbd 1f77 e33d 10c9 64bb
00000220: d141 a13d b1a8 22be 6d07 30bd 6f60 17be
00000230: ad86 8fbd 0fea b9bd 1254 e7bd 70cb 52bd
00000240: b85a a13b 061b cfbd 6965 f23d 40aa 043e
00000250: b965 c8bd 97fa d83d e68c 0dbe 7848 2dbc
00000260: 3e91 82bd 22b5 d13d 7e46 ad3d 0689 62bd
00000270: e153 35be a4fd cf3d 0eec 063d a7f6 b93d
00000280: b338 623d 5aa3 f3bd 15ea 2bbc f1e1 913c
00000290: 68cb 0cbe 6cc2 cfbc 32ed 533e a3c4 a9bc
000002a0: 9fa7 203e 6746 213e 4a0b 3fbd 35cb 21bd
000002b0: 4c5a 2c3e c02e 49be df6f 8c3d 03fb 13bd
000002c0: 2ffb 62be d2a6 ee3d 001d 613d 6ecb 2bbe
000002d0: cd0a 7dbd 3f2d 97bd 51b6 23be 1570 033e
000002e0: f800 28be d5e7 01be 9f9f 0d3e 604e fe3d
000002f0: 6803 a53c f19b 553d e44e 16be e4ad 82bd
00000300: da65 463d 37ff 253d 2798 1c3e 4c8d 183e
00000310: 5c0b 05be 285d 233c 6787 193e 82e7 533d
00000320: fcee 173e d4aa e33d 7903 02bd 20ca d8bd
00000330: c998 163e f7dc b7bd ff18 f9bd 1540 86bd
00000340: 1057 abbe 7898 18be 631a e13d bc34 44be
00000350: e023 e2bb faa1 b23c 8158 54be 15bd c2bd
00000360: 4f2e 9abd 0e00 21be 2cad b13e 8e98 62be
00000370: e6fc 85bd 7402 c03d ff5a 02bd 0638 123e
00000380: 5de1 6a3e 697b 00be 7ec2 aebd 869d 30be
00000390: 1151 77bc a793 9cbd 4583 4d3e 2ae2 cc3c
000003a0: 1a62 4f3e 2ee1 7a3d e9d9 3c3e 0e8d c43c
000003b0: 1a8d b03d da97 53be 7185 8dbc ffdd fcbd
000003c0: e101 66be ecc4 673d 5b2b 06be d53e f3bd
000003d0: 2705 823c b895 2cbe ba22 4fbd 528f 96bd
000003e0: 1954 8abe e66e 31bc 1d8a 743d 8935 453e
000003f0: a9ce 2fbd 0d5e 11bc e74b 96bd 62df 3abd
0.035510797 0.014046677 0.10849473 -0.12856469 0.034754097 -0.14847167 0.22026959 -0.07162576
0.21149334 -0.044384852 -0.00062862015 -0.2310331 0.056621507 0.064958595 -0.23791343 0.14290087
-0.16181579 -0.08268259 0.16684586 -0.16554758 0.017988237 -0.18397978 -0.20089242 0.11010982
0.10964276 -0.062736005 -0.06649116 -0.107276924 -0.056163326 0.12103546 0.14566658 0.0018787833
0.07750018 -0.0012614417 -0.10476852 -0.029972734 -0.17506479 0.10115258 0.106833324 0.17109749
0.097493164 -0.06317624 0.23575972 -0.0055615637 0.17767918 -0.117536366 -0.0019745668 -0.021103673
-0.2238626 -0.030852996 -0.09807414 -0.00732515 -0.072178304 -0.14263056 0.07169033 0.008255558
-0.13757546 0.091782615 0.15625618 0.07698199 -0.052214775 -0.028509015 -0.021451967 -0.14235517
0.07693964 -0.0540714 0.08268496 -0.0930357 0.10243646 -0.11958247 0.2834794 0.00323908
0.19778955 0.07100247 -0.022572776 -0.16428497 0.2698514 0.024117658 -0.033568803 -0.19597404
-0.32066426 0.10931276 0.1671625 0.09923011 -0.12087625 -0.04622317 -0.31493685 -0.14932153
0.02260073 -0.04019706 0.2503335 -0.24346492 -0.13685994 0.22471096 0.023982273 0.26865286
0.27049962 -0.17494793 -0.074827835 -0.048541743 -0.014747802 -0.0057957796 0.29994255 0.037070047
0.09723445 0.036639497 0.10086135 0.034670487 0.08486658 -0.23930192 0.15639627 -0.05226715
-0.09822301 -0.06606278 -0.13676785 -0.058090717 0.057098735 0.0010776656 0.083849795 0.039378032
-0.30543688 0.14598405 0.19248655 0.2866896 -0.2019107 0.1406391 -0.26458833 -0.1929434
0.008968885 0.11261722 -0.0046555 -0.12756214 -0.15384445 -0.07679891 0.11106705 -0.0034909882
0.078738816 -0.15884663 -0.04297583 -0.1478288 -0.07008109 -0.09077846 -0.11295332 -0.051463544
0.0049241446 -0.10112576 0.11835749 0.1295557 -0.09785027 0.10594671 -0.1382328 -0.01057636
-0.06375359 0.102396265 0.08460711 -0.055306457 -0.17707779 0.101558 0.032939963 0.09080248
0.055229854 -0.11896391 -0.010492821 0.017807933 -0.13749468 -0.025361262 0.20695952 -0.020723647
0.15688942 0.15749513 -0.046641625 -0.039500434 0.1683132 -0.1964674 0.06857275 -0.036128055
-0.22166131 0.11652912 0.054959297 -0.16776821 -0.06177788 -0.07381677 -0.15987517 0.12835725
-0.1640662 -0.12686093 0.13830422 0.124172926 0.020143226 0.05215067 -0.14678532 -0.06380823
0.048436977 0.040526595 0.15292417 0.1489765 -0.12992615 0.009970941 0.14993058 0.051734455
0.14837259 0.11116567 -0.031741593 -0.10585427 0.1470672 -0.089776926 -0.12162971 -0.065551914
-0.3346486 -0.14901912 0.10991361 -0.19160742 -0.0069012493 0.021805752 -0.20736887 -0.09508721
-0.07528364 -0.15722677 0.34702432 -0.22128507 -0.06542377 0.09375468 -0.031825062 0.14279184
0.22937532 -0.12547077 -0.0853319 -0.1724759 -0.015095011 -0.0764535 0.20069607 0.025010187
0.20252267 0.061249904 0.18442501 0.023993041 0.08620663 -0.20663396 -0.017275544 -0.1234703
-0.22461654 0.056584284 -0.13102476 -0.11877219 0.015871597 -0.16853988 -0.050570227 -0.07351555
-0.27017286 -0.010829663 0.059702028 0.19258703 -0.042921696 -0.008872521 -0.07338696 -0.04562319

lstm.bias_ih_l0 f4 [256]
00000000: 7a9f fd3d f66c d63d 4e15 803d a2b3 4b3d
00000010: 671d 553e 9e6e 67bd 2e88 b0bc 40bc e23d
00000020: 67d5 d03d 5824 083e 5e82 ab3d a785 ff3d
00000030: 6e37 f1ba 4666 833d 08d4 3bbb d334 de3d
00000040: 4aab b73c 08e6 f5bc 8a34 6a3d ac3b 3a3e
00000050: 279f 2c3e 70fc 453e 5ac0 18bc db60 463e
00000060: b0bc 803c 4046 273e 6c16 363c d81e babc
00000070: d239 223e 3663 1d3e 818b 403e ca09 423e
00000080: 4ee9 473e cdcc 06bd 5c76 a538 fb0a 353e
00000090: 457f 393e c2aa d3bc 896e 823d 961a de3d
000000a0: 2bd2 fb3d 5ee7 fb3d 33be 823d 56f5 873d
000000b0: c9fe 2a3d 42ae 96bc 70e9 223e 2538 d73d
000000c0: 064d dc3c 0567 f33b 445f 183e 40fb 9d3d
000000d0: 7913 4f3c 7afd fc3d 990d f1ba 88dd 2b3e
000000e0: 2cf4 483e 299f 0b3e d4e4 953d 2a64 3e3d
000000f0: 49df 053e 1447 17bc 81ed f83c 0a7a b53c
00000100: 94a0 52bd 0d41 b13c 3f54 073e ded3 483d
00000110: 291c 21bd 8e81 2b3c 6733 06bc 8431 39bd
00000120: 3f0e 8c3c b129 d5bd f215 adbc 2b10 8c3d
00000130: 4594 cfbc dc26 533d e96e c63d 9aea ae3d
00000140: 8441 243c 46bd c63d 4a63 033c f086 fdbc
00000150: 0325 e83d c8e0 99bd 423d d73d 7296 56bc
00000160: 9a03 a2bd 92d8 20bd abc4 7fbd 181d cf3c
00000170: 5286 583d f9a8 c9bc c289 80bd 7f93 623e
00000180: b3d0 23be e270 a4bd 0421 96bd b952 993c
00000190: a6b9 723b 0cea 8abd f936 903d 1e23 e4bd
000001a0: 8f49 3bbd 05be 19be b5d2 39bd a1bd 65bd
000001b0: 95de e03c bb58 bdbb 39d1 80bc f246 45bd
000001c0: 6ca9 ae3d 3192 a7bd afe7 853d 875a 6dbe
000001d0: 51e5 97bd 6d09 e3bd 51c8 853d df65 03be
000001e0: f8de 6c3d 2310 cabd 25cf a03d 63d3 dc3d
000001f0: 5145 dbbd ad02 833d f5cf 603d f660 c43c
00000200: b248 013e 8bbb eb3d e4da 00bd b819 c13d
00000210: e7e0 33bd 843e 69bd 26c4 2c3d c48c b53d
00000220: 9ca1 ed3d 8c2a 023c a8c5 89bd a18b 483c
00000230: c723 a63d d897 933d cff0 eabd e720 44bd
00000240: 234a 0ebe d43b 403c e995 dc3d 6f73 cf3d
00000250: da03 813d 6add a7bd 3a24 06be abfd 1cbe
00000260: e261 cd3d 8f82 c7bd c554 a03d b11d 1dbe
00000270: abde ab3c b2dc 053d 1c1b 023e ca15 ff3d
00000280: c940 0b3e abd4 15be 45e0 0b3d f0ab 1fbe
00000290: adaa 9c3d 9bf7 d7bd 447d cf3c 8be4 60bd
000002a0: e916 1c3e 593d cc3d b7fb da3d a26f f93d
000002b0: 925b a53d d103 0bbe a54e fc3d c9a8 0d3d
000002c0: e800 d1bd b38a 353d 8847 9abd fb20 143d
000002d0: edde 113e 8245 caba 5e14 343d fd64 813d
000002e0: 8c26 3d3d 2572 ad3c e910 aa3d 5470 063e
000002f0: a3cd bdbd 4f48 fd3d fa83 cebd cc92 35bd
00000300: b4b1 773c 0f24 d53d c98f 343e 6546 033e
00000310: a20e 0c3c 2654 463e 8758 843d f675 e23c
00000320: 964d 3d3e d09e 303e 2e2a 983e f181 4e3e
00000330: e184 143e 660c 4f3e 454a 3a3e e9d7 893d
00000340: 4af1 ee3d deb4 0e3e b88e 083e 68bf 3f3d
00000350: 5314 2f3e d6ac f83d ce1e f13d 318c 1c3e
00000360: 9461 9a3c 4999 4c3e affa 4b3e 53ea c83d
00000370: 749c c63d e54a 853c 5ee0 6f3d 73d6 253e
00000380: ce0a 693d a412 383e 26df 533e bd50 053e
00000390: 0216 4d3e 34e0 db3d 6449 c93d 8f0d 563d
000003a0: c8fc eb3d 2644 3d3e 2273 233e 70e6 f6bc
000003b0: 6c35 7e3d b6be 6c3d baec 0fbd b551 6c3d
000003c0: 6000 93bd 3642 9a3c 70db ffbc 8d6f 3b3e
000003d0: 47a8 a7bc 3202 5e3e 569c cf3d b6b4 2e3e
000003e0: 634e 8f3d d491 a33d 0a02 03bd 6edd 18bc
000003f0: 55b6 243e 6e6a 3d3e 3a44 253e 143f 8c3d
0.12383933 0.104700014 0.062540635 0.049731858 0.20811997 -0.056501977 -0.02154931 0.11071062
0.10196953 0.13295114 0.08374475 0.12476664 -0.001840336 0.064159915 -0.0028660316 0.10849919
0.022420544 -0.030016914 0.05717901 0.18186826 0.16857587 0.19334579 -0.009323204 0.19372885
0.015714973 0.16335392 0.011113744 -0.022719786 0.15842369 0.15369877 0.18803217 0.18949047
0.19522592 -0.032910157 7.889859e-05 0.1767997 0.18114956 -0.02583826 0.06368739 0.108449146
0.12295946 0.12299989 0.06383934 0.06638591 0.04174689 -0.01839364 0.15909362 0.105087556
0.026892196 0.0074280524 0.14880091 0.07713938 0.01263892 0.12353034 -0.0018390893 0.16783726
0.19624394 0.13634934 0.07319036 0.046482243 0.13073458 -0.009233255 0.030386688 0.02215292
-0.05142267 0.021637464 0.13215731 0.049030177 -0.039333496 0.0104679 -0.008190966 -0.045213237
0.017096637 -0.10408343 -0.021128628 0.06839021 -0.025339255 0.05155073 0.09689123 0.085408404
0.010025386 0.0970407 0.008019278 -0.030948132 0.113351844 -0.07513577 0.10509731 -0.013097392
-0.07910843 -0.039269038 -0.062443417 0.025282428 0.052862473 -0.024616705 -0.06276275 0.22126578
-0.15997581 -0.08029343 -0.07330516 0.018716203 0.0037036925 -0.06782922 0.07041735 -0.111395106
-0.045724448 -0.15013893 -0.04536696 -0.056089047 0.027449885 -0.0057783998 -0.015724765 -0.04816336
0.085284084 -0.08182181 0.06538331 -0.23179065 -0.074167855 -0.11085782 0.06532348 -0.1283183
0.057829827 -0.09866359 0.0785201 0.10782506 -0.107065804 0.06396995 0.054885823 0.023972016
0.12625387 0.1151038 -0.03145875 0.094287336 -0.043915655 -0.056944385 0.04217925 0.088647395
0.1160309 0.007944714 -0.06727153 0.012240321 0.08112293 0.07206696 -0.11471712 -0.04788294
-0.13895468 0.011733014 0.107707806 0.10129439 0.06299563 -0.08196528 -0.13099757 -0.15331142
0.10028435 -0.09741699 0.078286685 -0.15343358 0.0209802 0.032681175 0.12705654 0.12455328
0.13598932 -0.14631908 0.034149427 -0.15592933 0.07649741 -0.10545274 0.025328286 -0.054905456
0.15243115 0.09972639 0.10692542 0.121794954 0.08074106 -0.13575675 0.12319688 0.034584794
-0.10205251 0.044321727 -0.07533175 0.036164265 0.14245196 -0.0015432092 0.043964736 0.0631809
0.04617934 0.021172592 0.083040066 0.13128787 -0.09267738 0.123673074 -0.10083766 -0.04432945
0.015118051 0.10407268 0.17632975 0.12819822 0.008548411 0.19368038 0.06462198 0.027644139
0.18486628 0.17248082 0.2971968 0.20166756 0.14503814 0.20219573 0.18192394 0.06730635
0.11667116 0.13936183 0.13335693 0.0468134 0.17097597 0.12142341 0.11773454 0.15287854
0.018845357 0.19980349 0.19919847 0.09810319 0.0969781 0.016271064 0.058563583 0.16195087
0.05689507 0.17975861 0.20690593 0.1301908 0.20027927 0.10736123 0.09828451 0.052259024
0.115228236 0.18483028 0.15961888 -0.030139178 0.062062666 0.057799064 -0.03513787 0.05769511
-0.07177806 0.0188304 -0.031232566 0.18304272 -0.020465983 0.21680525 0.101372406 0.17061123
0.06997373 0.07986799 -0.031984366 -0.009330137 0.16085179 0.18497631 0.16139308 0.06847969

lstm.bias_hh_l0 f4 [256]
00000000: b6b0 fdba 2bd1 1b3e 8d2c 193e 047a a93d
00000010: 431e 4e3e ae3f 903d 5a1c 2a3e 3781 e93d
00000020: f5aa 5e3e d8dc c53d e7a3 603e bdaf 163d
00000030: cacb fa3d 216e 263d f463 3f3e 51a9 2e3d
00000040: 35e3 b53d 26aa 283e 3cd9 1c3e 2859 bf3d
00000050: bd8e dd3c 4133 033e 86c4 85bd 9397 823d
00000060: 3e4c 133e c491 243c 7291 96ba aa2a e8bc
00000070: 0183 f73d 4c31 723d 13c7 e53d 4f75 113e
00000080: df57 e73d 8c7e 9c3d 362b 323e 738b 073e
00000090: 6aa4 143d 2ca7 8cbc 00a5 4c3d 7c91 723d
000000a0: e68c 363e be1f 283e da17 45bc eecf f43c
000000b0: 4891 6d3d d505 103e a755 1fbd 125e 063e
000000c0: d339 943d f7eb 0a3e 7e6c 7f3d 5564 a03d
000000d0: c2e0 f63d c228 243e 53ab 813d af91 173e
000000e0: 9508 343d c7e6 ce3d f274 4fbd dbf5 b73d
000000f0: d8d5 1b3e 4058 4a3d ce17 4a3e 6874 4fbd
00000100: 9a03 b0bc d9ad 773d 53a3 4bbd 4a0b fa3d
00000110: ddd2 18be 9d47 7bbd b0fd 0bbc 6193 4cbe
00000120: 3898 47bb 0fde 15be 2a9f 9d3c 3cc8 8fbd
00000130: 4152 45bc 6082 b73c 39b6 293e 11b0 acbd
00000140: 7c88 0d3e 6333 87bd 0dc5 0e3e 93aa fc3d
00000150: e14c 9abd e2f3 adbd 9de8 023e 95ef d3bd
00000160: 055f 30bd a090 edbd 0bf4 17bd de48 4b3d
00000170: 6a2c 3ebd 149b 593b 6c5c bfbb cfd3 193d
00000180: 68fa e53a eb33 3b3d 560c b43d 7e93 6b3d
00000190: f607 973c 5387 b63d 2084 073e 6b19 eabd
000001a0: 93d1 79ba ef1d 52be ce79 123e 9977 a43d
000001b0: 343f 353e 5426 9bbd 9377 983d e54c 30bb
000001c0: ad3c b8bd 9350 c7bd 87b4 a8bc cf83 c6bd
000001d0: e6eb d1bd 3dac a2bd 325e 8bbd 7426 0bbd
000001e0: cdc3 283d 868e 16bd 32c6 4b3d 5131 af3c
000001f0: f5f0 16bc a333 27bc 017e ebbd cf3b 163d
00000200: 4b76 e83d 7351 8d3d bf67 953d 1c13 81bd
00000210: 109a 86bd 1d47 9d3c f597 2e3e f01e 243e
00000220: f2ce d5bd 62d6 0b3e 1158 353d 4a27 88bd
00000230: 72d3 f03c 6800 f5bd 22cf d63c 205b 20be
00000240: ab6c e6bd d4a6 ca3d 5aef af3c 052e afbd
00000250: 4112 baba cc7e 82bc 5855 4abd 2e50 0ebe
00000260: e0f7 b5bd 2c14 04be 43b7 0e3e 5834 06bd
00000270: 219c 28be 3ac2 2c3e 80a9 d6bd 05d3 2e3e
00000280: ace9 2d3d 629b bfbd 07f9 eebc f2ca 1bbe
00000290: 4356 9f3d 76ea 6cbd fc21 c73c d345 9d3d
000002a0: d7b0 b03d ef1d b4bd f7cc efbd a774 e83d
000002b0: b0c7 ba3d 5d5c f3bd d4a0 033e 629a c6bd
000002c0: 0cef e2bd 4b42 e63d efb3 813c a5ea f1bd
000002d0: 8584 703d be60 14be 0c90 e3bd 0eff 113c
000002e0: e55d c3bd 51d4 10be 4b92 513c 4ae9 ab3d
000002f0: 9f14 e2bd 8a80 1f3e 4519 92bd c679 f5bd
00000300: f7c9 de3d d9d6 05bc de26 b7bc 5e53 4c3e
00000310: 7d37 e53d 31ec 3a3d 945b e6bc 9fb0 fe3d
00000320: c020 5d3d 6a6a ab3e 1c04 6e3e 2f7d 8d3d
00000330: ed2a 49bd 9f2a 903d d1dd 663c 3ee4 1d3e
00000340: be54 a73d 9075 203d 3e95 083a ce0b cf3d
00000350: a02b 253e 1e59 4b3e 7914 ea3d e407 ef3d
00000360: cc06 0f3e 811e 733c 4505 393d fbbb e63d
00000370: 0cf2 2e3d 8e7f 493e 9498 423d caa8 4d3e
00000380: b435 59bb ce50 413d e4a8 0b3e 662a 503e
00000390: 4b1d f5bb 1f2d 773d c735 ca3d f139 733e
000003a0: 9baa 933d 0a07 323e 3e8a 153e 7812 8b3d
000003b0: 0218 e63c e91f f83d e30e 143e 319a 8a3d
000003c0: 242c e83d 4aa8 d93d 97cd 333e 3d14 9e3d
000003d0: 51e4 a33d b97f 46bb d980 4abc b382 e53d
000003e0: ca01 9b3c 92fc 233d 26c0 30bd 71ab 023d
000003f0: da6f f93a 8698 0f3d bc0c 1a3d 77e1 953c
-0.0019355032 0.1521651 0.14958401 0.08275226 0.20128731 0.07043396 0.16612378 0.11401599
0.21744902 0.09661263 0.21937524 0.03678869 0.12245901 0.04063237 0.18690473 0.04264194
0.08881227 0.16471156 0.15317243 0.09343177 0.027045602 0.1281252 -0.065316245 0.06376567
0.14384553 0.010044519 -0.0011487438 -0.028340656 0.12085534 0.059129044 0.11219611 0.14204906
0.11296057 0.076413244 0.17399296 0.1323679 0.03628961 -0.017169558 0.049962044 0.059220776
0.17827186 0.16418359 -0.012029612 0.029884305 0.05799988 0.14064725 -0.038900044 0.13121822
0.072375916 0.13566576 0.062359326 0.07831637 0.12054588 0.16031173 0.063315056 0.14801668
0.043953497 0.10102611 -0.050648637 0.0898244 0.15218294 0.049400568 0.19735643 -0.050648123
-0.021486092 0.06046853 -0.049716305 0.122091845 -0.14924188 -0.061347593 -0.0085443705 -0.19978096
-0.003045572 -0.1463549 0.019240934 -0.070206136 -0.012043537 0.022401035 0.16573419 -0.084320195
0.13821596 -0.06601598 0.13942356 0.12337222 -0.07534195 -0.084937826 0.12784047 -0.10348431
-0.043059368 -0.11599851 -0.037097972 0.04963004 -0.046429075 0.0033204006 -0.005839875 0.037555512
0.001754594 0.04570381 0.087914154 0.057513706 0.018436413 0.0891253 0.13233995 -0.11430629
-0.0009529825 -0.20519231 0.14304277 0.08030624 0.17699891 -0.0757567 0.07444682 -0.0026901301
-0.08995948 -0.09732165 -0.020593895 -0.09693109 -0.10250072 -0.07943008 -0.06805076 -0.03397222
0.041202355 -0.036757015 0.04974956 0.02138582 -0.009212722 -0.010205182 -0.11498643 0.03667813
0.113506876 0.06900301 0.072951786 -0.06302473 -0.06572354 0.019198949 0.17050155 0.16027427
-0.10439862 0.13656 0.04427344 -0.06648119 0.0293977 -0.11962968 0.026221815 -0.15659761
-0.112511955 0.09895101 0.021476436 -0.085536994 -0.0014196114 -0.015929602 -0.049397796 -0.13897774
-0.08885169 -0.1289832 0.13937096 -0.032764763 -0.16465808 0.16870967 -0.10481548 0.17072685
0.042459175 -0.09355809 -0.02917148 -0.15214136 0.07780125 -0.057840787 0.024308197 0.076793335
0.086274795 -0.08794772 -0.11709016 0.11350375 0.091201186 -0.11882851 0.1285432 -0.09697415
-0.11080751 0.11243113 0.01583287 -0.11812333 0.05872013 -0.14490029 -0.11111459 0.008910907
-0.09539393 -0.14143492 0.012791227 0.08394106 -0.110390894 0.15576378 -0.07133726 -0.11986117
0.108783655 -0.008168899 -0.0223574 0.19953677 0.11192224 0.045635406 -0.02811984 0.124360316
0.05398631 0.33479625 0.23243755 0.069086425 -0.049113203 0.07039379 0.014090971 0.15419099
0.0817046 0.039174616 0.0005210227 0.101096734 0.16129923 0.19858214 0.11429686 0.11671427
0.13967437 0.014838816 0.04517104 0.11266323 0.042711303 0.19677565 0.04750879 0.20083919
-0.0033143582 0.047196202 0.13638645 0.20328674 -0.0074802986 0.060345765 0.098735385 0.23752572
0.07210275 0.17385498 0.14603516 0.06790632 0.02808762 0.121154614 0.14458804 0.06767691
0.11336544 0.10627802 0.17558895 0.07718704 0.08002532 -0.003028853 -0.012359821 0.112065695
0.018921752 0.04003579 -0.043151997 0.03190178 0.0019030527 0.035057567 0.0376098 0.018295987

lstm.weight_ih_l0_reverse f4 [256, 8]
00000000: 8a86 b6bd f4b2 463d aba4 1e3d c42e 26bd
00000010: 1771 f3bd fe94 b63c 59d7 96bd bc26 cc3c
00000020: 3726 61bd 4acc fe3c 74a3 b23c 6130 9e3d
00000030: f40f 5d3e 6a26 d03c 62a5 9a3d 60d2 073e
00000040: f8f2 903d eb56 733c 175b 03bd bbd0 55bc
00000050: 0bab 27bb 1fc1 0fbe 4f48 993b a5ac 3ebc
00000060: bf21 3cbd 5a93 16bd 2905 213d fea0 973d
00000070: 9a49 f63d bf29 a33d 922b 9a3d 6e80 cd3d
00000080: 0a80 d8bd d62d a83d 842f 7f3d 4315 3c3d
00000090: 8231 243d 8675 42be 5631 93bd 3d35 c63d
000000a0: 2ee9 fdbc a471 bcbb ea3b 893d efaa bfbd
000000b0: 2f75 c7bd b711 033e a9f6 0ebd 2b07 bcbc
000000c0: 027e 72bd c9f5 bbbd 56d5 a6bd df7e 88bc
000000d0: 29ce be3c 890f ab3d cee6 113e 5efa 67bb
000000e0: 64f0 aa3d 6ed5 13be 781b f3bd 5800 a83d
000000f0: 7ba8 97bd 0cf7 943e 1c56 1d3d b8e4 20be
00000100: 6350 4abe 1e85 15be d316 acbd 8f76 18bd
00000110: f8e4 fbbd 7332 1dbd af9f 013e 2fce a23d
00000120: 4d01 00bd 374c c5bd 8788 a1bd 1ea5 22be
00000130: 0bb0 553e b29a de3b 7ab7 3f3d 5fc6 cebc
00000140: 345b cbbd 9d21 48be b24c 02be e3fa 95bc
00000150: 112f 633b a1b7 bd3d 0f17 393e 0610 a53d
00000160: 7703 5fbe fffe 07be 6b14 61be 1a53 f23c
00000170: a061 02be 82b0 e73d 37b1 733d 29e0 ba3d
00000180: 6b7c 383d 46b1 bbbd cb20 26be dd26 543d
00000190: 6445 c2bd 8edc fa3d 70df 0b3e 6e80 1d3c
000001a0: b2cc 09be fe54 ba3d a044 79bd dd09 933d
000001b0: 2512 ffbb 3025 61ba 6622 9fbd ba2e 0cbc
000001c0: b726 c43b 443c 863d b5a8 0bbe 506a 203d
000001d0: f7fd 55bd f42d 8e3c fc11 553b f849 ef3d
000001e0: 8920 0ebe 8bca d33a 7e44 29bd 4f06 c13d
000001f0: 8137 6a3d b563 48bd 36c5 023e 713f bebd
00000200: 7919 163d 19c3 e7bd 6a99 3e3c 251d 253d
00000210: 7412 02be 0bbe b13c f76e 7bbd 63d3 a53d
00000220: 0046 ce3d 4927 55bd a5e6 b6bd 14d9 143d
00000230: e782 813d ef1d 083c 08ff 4abd e9e9 bebb
00000240: f756 be3c 1b0f e1bd 09b9 213e 2003 01be
00000250: 2d6b 0c3d ea3f d03d 1bde 5c3d e165 14be
00000260: 8307 5ebc 8208 4a3d 2d3a 4ebe 5b38 c8bd
00000270: e8cc 2b3e d818 933d e9b6 5ebc ebfa 85bd
00000280: f261 8dbd 5cc4 6c3d 7a45 293d 935e 27be
00000290: 14bc b53d 18a0 33bd 1e9a dbbd 465f fabc
000002a0: 48ff efbc 1c9b c3bd c8df 26bd 2976 533c
000002b0: 196f cdbd 5cd1 e0bd 9edd 03be befc 0abe
000002c0: 0f81 af3c 7625 893c cb2e cfbd 8282 03bd
000002d0: 6630 343e 2df2 97bd 1552 9cbd 4310 9dbd
000002e0: b051 4a3d b9e8 1dbe 9f0a 1abe 59a6 803d
000002f0: 9ca5 94bd 8708 a63d 6013 dd3b 8e32 52bd
00000300: 46c3 63be f3b5 15be 1eda 30be 895a b9bd
00000310: 245c b53b eea7 d63d d14b a83c b33c ca3c
00000320: 4708 483d 5ad1 1ebc a18b 8c3c fa30 703d
00000330: 6494 b03d de59 b0bd 6d16 3a3d c216 ed3c
00000340: c41f 033d fe8c 5abd ffa1 873d b1a4 cf3d
00000350: 0307 d5bc 9240 e13d a0da 36bd 124d 893d
00000360: 9a15 b4bd 4b3f 27bd 664c e7bd e85d b43d
00000370: ba04 0bbe 1a1f 1b3e 1c17 753e b27f 6dbb
00000380: 8cf6 a9bd 7c04 4dbe d42c 2ebe 7dda 02be
00000390: 7267 9f3d 2cbe 873d b23c 263e c1a5 733d
000003a0: 6068 473d de74 5b3d b348 603d 2d65 df3c
000003b0: 3067 273e 52ce f23d a821 07be 0fdd c3bd
000003c0: a413 ebbc ab7a c8bd 4621 edbd b0e7 25bd
000003d0: 3982 cb3d 6e82 073e 9bf3 a03d 86a5 913d
000003e0: 518c b53c 3ce2 543d 18f3 b33d 3fd9 1f3c
000003f0: 6d59 e13d 70f1 45bd ff86 35ba f5dd 79bc
-0.0891238 0.048510507 0.03873126 -0.040571943 -0.118868046 0.022287842 -0.07365293 0.024920814
-0.054968085 0.031103272 0.021806456 0.07724071 0.21588117 0.025408942 0.075510755 0.13263845
0.070775926 0.014852266 -0.032069292 -0.0130502535 -0.0025584127 -0.14038514 0.0046778093 -0.011637841
-0.04593062 -0.03676162 0.03931156 0.07403754 0.12025757 0.07966947 0.07527842 0.10034262
-0.105712965 0.082118675 0.062301174 0.045918714 0.040086277 -0.18990144 -0.071871445 0.09678123
-0.030994978 -0.0057508517 0.06700881 -0.09358775 -0.09739148 0.12799726 -0.034903202 -0.022952637
-0.0592022 -0.09177739 -0.08146159 -0.01666206 0.023291664 0.083525725 0.14248201 -0.0035397033
0.08346632 -0.14436886 -0.118704736 0.082031906 -0.07405182 0.29094732 0.0384122 -0.1571225
-0.19757228 -0.14601561 -0.08402791 -0.03722244 -0.12299532 -0.03837819 0.1265857 0.07949483
-0.03125124 -0.096336775 -0.07887369 -0.158833 0.20867936 0.0067933435 0.046805836 -0.025241075
-0.09929505 -0.19544072 -0.1272457 -0.018308109 0.0034665505 0.0926354 0.18075202 0.08059697
-0.21778665 -0.13280867 -0.21980445 0.029580642 -0.12732553 0.11312963 0.059495177 0.091247864
0.04504053 -0.091646716 -0.16223447 0.051794875 -0.094858915 0.12249099 0.13659453 0.00961314
-0.13456991 0.09098242 -0.06085646 0.07179616 -0.0077841454 -0.000858861 -0.07770233 -0.008556062
0.0059860605 0.065544635 -0.13638575 0.039163888 -0.052244153 0.017355897 0.003251194 0.1168403
-0.13879599 0.0016158385 -0.041325085 0.094250314 0.05718184 -0.048923213 0.12770543 -0.09289444
0.036645386 -0.11316509 0.011633256 0.040310998 -0.12702352 0.021697065 -0.06138512 0.080969594
0.10071945 -0.05203942 -0.08930711 0.036339834 0.06323796 0.008307918 -0.049559623 -0.005826224
0.023234827 -0.10989209 0.15793242 -0.12598848 0.0342819 0.10168441 0.053922754 -0.14491989
-0.013551596 0.04932452 -0.2013938 -0.09776374 0.16777384 0.07182473 -0.013593414 -0.065419994
-0.06903447 0.05780445 0.041326024 -0.16344671 0.08873764 -0.04385385 -0.10722755 -0.030563008
-0.029296532 -0.09551069 -0.04074076 0.01290659 -0.10030956 -0.10977432 -0.12877509 -0.13572976
0.021423845 0.016741496 -0.10116347 -0.032106884 0.17596588 -0.07419238 -0.076328434 -0.07669117
0.04939431 -0.15420808 -0.15043114 0.06281728 -0.0725815 0.08107095 0.0067466944 -0.051317744
-0.2224246 -0.1462019 -0.17270705 -0.09050471 0.0055346657 0.10481249 0.020543965 0.024687147
0.04883602 -0.009693468 0.017156424 0.058640458 0.08622053 -0.08610891 0.045431543 0.028941516
0.032012716 -0.053357117 0.06622695 0.10138834 -0.02600432 0.10998644 -0.04464209 0.06704153
-0.08793183 -0.040831845 -0.11293869 0.08806974 -0.13576022 0.15148583 0.23934597 -0.0036239442
-0.08298978 -0.20021242 -0.17009288 -0.12778659 0.077834025 0.06628069 0.16234091 0.059484247
0.048683524 0.05357825 0.05475683 0.027269924 0.16347957 0.11855759 -0.13196433 -0.09563648
-0.028695889 -0.09789022 -0.11578612 -0.040504158 0.099369474 0.13233349 0.07858964 0.07111649
0.022161635 0.051973566 0.08786601 0.009756385 0.11003385 -0.048325956 -0.0006924718 -0.015250673

lstm.weight_hh_l0_reverse f4 [256, 64]
00000000: 11d1 0dbe 6982 2abe 1d8a a9bd 4090 2abc
00000010: c8c0 953c ae02 b03d 0611 e5bc 3a8c 74bd
00000020: c9fb 06bd 6078 a4bc 76fd 27bd c39c 883d
00000030: 15a0 a3bd 92dd 6a3b 81f3 ccbd ef50 4c3d
00000040: 0eb4 f43d 8b2a fabd 42fb 8f3d 3a8f d2bd
00000050: b4fc a0bd 7db1 563d 708b ffbd 319f 7c3d
00000060: 4b95 cabd 0f93 18be bf3d 11be 17c8 75bd
00000070: bffa a23b fe16 7d3d d2d5 593c 0ed8 7dbd
00000080: 5355 9e3d 74e3 43bd e5ff 81bc 6f4f 08be
00000090: 9091 71bd a5bd efbd 5edc d5ba 60fd b13d
000000a0: 2dd5 16be 5e0d 15bd 25d9 5d3d 9220 21be
000000b0: 1fa5 1e3c 63f3 ffbd 70e1 9b3d 8444 71bc
000000c0: ab0c 9cbd 1b1a 1fbe 6c5b 283c aa0c 653d
000000d0: 9de9 d2bc 4144 81bd c293 00be bc6b 7b3d
000000e0: dc19 123d 62b5 b03d 3944 1bbd 3c5c 11bd
000000f0: 9277 83bd eb16 d03d 48a8 d83d f85f 78bd
00000100: 72f0 bdbd 176f dfbd 2226 8bbd ac62 d0bd
00000110: 02f9 863d 89ce 443e faeb 013d 5c55 8d3d
00000120: bbbf ddbd 2145 28be 9d40 49be efd3 193d
00000130: 8f59 d53c 3569 1e3e 6927 02be fc10 873d
00000140: 3c42 0fbe 8234 c2bd 7210 d5bc 5f5c e3bd
00000150: 0aec a2bd 4c09 4b3e d378 f73b a9b9 19be
00000160: e1d6 f6bd 1933 0ebe 4aa7 8c3c 9b0d 2cbc
00000170: 8aca 803d 9ed8 da3d d843 0e3e 5bcb c43d
00000180: ed7b 1bbd 5fde b03d d2f8 9f3d 528a 07bc
00000190: ac6b 9ebc 44fe 9ebb df49 44be a634 ab3d
000001a0: 6066 2abd 1359 333d c178 59bb 2188 c9bd
000001b0: 1cd8 61bd 6d4b a53d cd2e 413e c552 8ebd
000001c0: e574 00bc 6224 b73d 0b7c ad3d 98fc 60bd
000001d0: 21b7 2dba 2094 3dbd 625e 2fbe 3997 e6bc
000001e0: fa8a c33d 3644 203e 193d 95bc 5483 1a3e
000001f0: 1eb6 a53d 6a07 f6bd 5843 10be 8119 103e
00000200: b55a 76bc f9f9 06be b358 1cbe 6023 943d
00000210: 6bc5 973d 5a3d 1c3e 5274 853d 72f2 033d
00000220: fd81 01be 0778 a73a 5dbe 24be 86a1 8b3d
00000230: a0d2 84bd cc5f df3d 7ae9 abbd bc92 85bd
00000240: 2ca4 afbd 93f2 90bd 15b3 2cbc 480b a53d
00000250: 28d5 f83c 99dc 893d a99a 7dbd 8d53 2b3d
00000260: a1f4 013d 39b4 13be 3978 b83d 07e7 723d
00000270: ab32 0e3e 4a46 943b 2814 e5bc f3a6 fabd
00000280: b9f2 2b3e c170 80bd 83a0 33bd 5075 ecbd
00000290: 0c74 1fbe b729 d7bd 0011 bebd 8d0c 42bc
000002a0: 8193 1bbd 5c81 df3d 6313 14be 7c36 ffbd
000002b0: 32c8 f6bc fa50 7dbd f79a a53c 8b22 4f3d
000002c0: 8999 9d3c 6046 e63c 3345 4abd efe3 51bb
000002d0: b8b8 88bd fb44 2b3c 199a 92bd b720 d53d
000002e0: ace5 7f3d b9ba c33d 3b29 7c3b b016 b03c
000002f0: 6e55 d3bc 0597 c5bc a517 853d 4365 313d
00000300: d054 853c cb4e 28be 2b94 493d 5467 26bd
00000310: f261 b9bc 9338 23bd 70ad 1c3e 3097 423e
00000320: c09f 0cbe a5ac 113d 56a0 1ebe 9f69 3a3e
00000330: 3992 f03d 4c9e 0d3d eea6 24be cb84 debd
00000340: 4cf9 92bd 0ae0 333d 9862 c2bc 1693 89bc
00000350: 472a 8c3a 20c6 abbc 6f3f 93bd 98cf 1bbe
00000360: bb12 36be d2d1 2ebe 125d 50bd 522b 86bc
00000370: a3aa 7abc 64d9 9c3d 61f4 f1bc 3114 0c3d
00000380: b06c 6abc 8da6 cfbc 9aab a2bd 0cdd 87bd
00000390: 8617 f7bc b14a 25be 7079 bfbd e394 173d
000003a0: ba4a 903d ce81 30bd 3798 84bc 111d 31be
000003b0: 846f b03d 2f31 c63c d345 073e a50e 44bd
000003c0: 4367 2d3d 9edd 06be f89f 53be 66ac fc3d
000003d0: 6229 07be 1434 3abe be6a e2bd 1366 1e3b
000003e0: 2b86 7abd 1236 1f3e cf59 72bc d50c 3a3e
000003f0: a5d3 033d b20b 55bd e3ba 013d a9af ba3d
-0.13849284 -0.1665131 -0.08278296 -0.010410368 0.018280402 0.08594261 -0.027962219 -0.059704043
-0.032954965 -0.02007693 -0.041013204 0.06670525 -0.079895176 0.0035837633 -0.10007382 0.04988187
0.11948405 -0.12215146 0.070303455 -0.102812245 -0.07860699 0.05241536 -0.124777675 0.061675254
-0.098917566 -0.14899848 -0.1418371 -0.060005274 0.004973739 0.061789505 0.013295608 -0.061973624
0.07731118 -0.047824338 -0.01586909 -0.13311552 -0.05897671 -0.11706094 -0.0016316285 0.086909056
-0.14729758 -0.0363897 0.054162163 -0.15735081 0.009682923 -0.12497594 0.07611358 -0.014725808
-0.07619604 -0.15537302 0.010275703 0.05592028 -0.025746161 -0.063118465 -0.12556365 0.06138204
0.035669193 0.08628346 -0.03790686 -0.035488352 -0.064192906 0.10160621 0.10578972 -0.060638398
-0.09274377 -0.109098606 -0.06794383 -0.1017507 0.06590463 0.19219412 0.031719185 0.06901047
-0.10827585 -0.1643262 -0.19653554 0.03755563 0.026043681 0.15469821 -0.12710346 0.065950364
-0.1399011 -0.09482671 -0.026008818 -0.11101603 -0.07955177 0.19827765 0.007552245 -0.1501223
-0.12052704 -0.1388668 0.017169613 -0.010501291 0.06288631 0.10685848 0.13893068 0.096090995
-0.03795998 0.08636164 0.078111306 -0.008272724 -0.019338451 -0.004852088 -0.19168805 0.08359651
-0.04160154 0.04378612 -0.0033183547 -0.09840418 -0.05513774 0.08071027 0.1886551 -0.06949381
-0.00784037 0.08942486 0.08470925 -0.054928392 -0.00066267146 -0.04628384 -0.17125848 -0.02814828
0.09547992 0.1565102 -0.01821761 0.1508916 0.08091377 -0.12013133 -0.1408819 0.14072229
-0.015036275 -0.13181295 -0.15268211 0.0723331 0.07410701 0.15257779 0.06516327 0.032213636
-0.12647243 0.001277686 -0.16088243 0.068179175 -0.06485486 0.10906944 -0.083941415 -0.06522128
-0.08576235 -0.07077517 -0.010540743 0.08058792 0.030375078 0.06731529 -0.061915074 0.041827727
0.031727437 -0.14424218 0.09007306 0.059302356 0.13886516 0.0045249807 -0.027963713 -0.12238874
0.1679181 -0.06271506 -0.043854248 -0.11545813 -0.15571612 -0.10506003 -0.09280586 -0.011843813
-0.037982468 0.10913345 -0.1446052 -0.12461564 -0.030124757 -0.061844803 0.020215495 0.050570052
0.01923825 0.02810973 -0.0493824 -0.0032026728 -0.06675857 0.010453458 -0.07158298 0.104066305
0.06247489 0.09557099 0.0038476724 0.021495193 -0.025797572 -0.024119863 0.064986505 0.04330946
0.016275793 -0.16436307 0.04921357 -0.040625885 -0.022629712 -0.039848875 0.15300536 0.19002986
-0.13732815 0.035565037 -0.15490851 0.18204354 0.1174664 0.03457479 -0.16079304 -0.10865172
-0.07176456 0.043914832 -0.023728654 -0.016793769 0.0010693752 -0.020968497 -0.071898334 -0.1521591
-0.17780583 -0.17072228 -0.05087001 -0.016378079 -0.015299472 0.076586515 -0.029535474 0.034198944
-0.01430814 -0.025347972 -0.07942887 -0.06633958 -0.030162584 -0.16141774 -0.09349334 0.037007224
0.07045503 -0.04309254 -0.016185863 -0.17296244 0.0861502 0.024193374 0.1321023 -0.04786553
0.042334806 -0.13170478 -0.20666492 0.1233757 -0.1319938 -0.18183929 -0.11055516 0.0024169728
-0.06116311 0.1554797 -0.01479192 0.18168958 0.03218426 -0.052013107 0.03167237 0.09115536

lstm.bias_ih_l0_reverse f4 [256]
00000000: 4d2e bd3d 0ae5 90bd e06b 44bd 49c3 e13d
00000010: 810a dd3b 1c16 a0bc 7c2a ff3d 5c02 653d
00000020: 002e 98bd 6bc1 1a3e 1f70 67bd e04d dc3c
00000030: 85d1 623e fa2b 77bc 221a 16bd 8688 72bd
00000040: 1f7a 36bb 8699 e2bc 2aad 813c d3eb 783d
00000050: 0360 ccbc 5e6b 943d 9fe2 993d fecc a13d
00000060: fd12 e53d e1ff 94bc f237 49bd 12bf 763e
00000070: 21b4 383d 0e7d 2d3e 2545 95bb e8bb 193e
00000080: 620c c63c e683 a63c 7b8e a5bd 6b36 b0bd
00000090: 67fd 7d3d 2bfd 31bd 40e9 1e3e c28b d93d
000000a0: efdb f33d e69b 9fbd 6108 6cbd 4e98 dd3c
000000b0: c57a 12bd 166d cb3d 5316 413e db72 b53d
000000c0: d880 053d 75c0 f9bb cdb0 323e d08e adbc
000000d0: a08e 9cbd 646b 9e3d 9c87 6b3e 7930 493e
000000e0: e6ad 313e 5106 973d 1f93 d33c 41bc c33d
000000f0: a31a 033e eabf f73d fb52 7cbd 22c9 98bd
00000100: 7dcf 96bd df7a 8dbd 747d c6bc 052e 47bd
00000110: bb40 5fbd af21 a53d 6090 573d c054 69be
00000120: 32aa 8bbd e7b0 96bd 63ab 11bd 8bff 05be
00000130: 4610 6fbe 1322 e2bb 8668 643d 276a 1a3e
00000140: 2840 e9bd 7cd9 15bd ad31 ac3d dd0b aebd
00000150: 610c c6bb 2ed2 043e ca3f 7dbd b10f 823d
00000160: e0e1 0dbd 90ea 7d3d 607a b6bd a8d9 1abe
00000170: 74cd 0dbd b017 de3a 1407 8fbc 457b 093e
00000180: 837f f1bd a5e0 0cbd 7529 a03d 9c4f a73d
00000190: 2298 d03d 1ea0 8abd 3315 8f3d 7949 5fbd
000001a0: 664f 5b3d a7cf a1bc a6f5 883d 3180 0ebe
000001b0: ea58 943d ecee 623d 0e00 e43d ed9b a4bd
000001c0: 0414 573d 91b7 1abd 2d43 f7bd b85a 8abd
000001d0: b669 7abc c4ba 9abd b98a 08be b2df fdbd
000001e0: dd94 e2bd 7e50 5a3d d820 18be abaf 1f3e
000001f0: 2f16 433d eb74 89bd c05f 29bd 81f6 a53d
00000200: 5002 02be 7d9a 23bb 2b44 0bbe 7742 d53d
00000210: db36 ef3d 0dd1 b23b f8b3 303d cb55 ef3d
00000220: 9c39 cabd 3584 c0bd a10d 893d acc2 0e3d
00000230: 23e2 d03b d64e 1d3e 7474 27be 84fd a4bd
00000240: 9ec0 5ebd 395a fa3d 6e6a 02be 0e75 cebd
00000250: 4268 173e f5a4 fe3d 04d0 7f3d 494c 1abe
00000260: 5132 643d 3f9c 96bd 43c6 02be 0f78 553d
00000270: 19bc 213e f166 c73c 949c e23d fe80 f3bd
00000280: dcb8 eabd 8ce3 f5bd d3bf d3bc 58b8 f1bd
00000290: 2032 47bd a63d 5fbd ce84 3e3d dd60 023d
000002a0: 425f b8bd 2a95 963b 5d4a fbbd cd85 a2bd
000002b0: 67e4 c83d 0e31 e7bd becf 2ebd 10c0 db3c
000002c0: 18db 843d c89f e2bd f4e2 8bbd 3da7 a03d
000002d0: 02f2 d0bd 6a4f 303c 4292 0f3c eb63 a93d
000002e0: 037c 843d f810 9cbd 112b 573c e53c a73d
000002f0: 950f 81bd 6e8e 8e3d b5e9 60bd 2232 90bd
00000300: 7af6 283e 9aec 2e3d a2b2 733b b4e6 9d3d
00000310: b44b 67bd 4746 bf3d caed 0a3c f831 813e
00000320: a27d 7dbd ef10 c53c fb66 883d 7edf ff3c
00000330: 5553 1e3e 0e8f c23d 0a11 0abd 30a1 e63d
00000340: 92b2 1c3d cce0 94bc c3ab 0dbd 9f38 623e
00000350: f722 8ebd de71 0a3e 37bf cc3d ca5c 6fbd
00000360: 0281 f43d c1fa 1cbd 8049 9fbd 2e6b 113d
00000370: 5b8f e73d c382 093e ce63 083e f219 c03d
00000380: ab8b 063d df68 84bd bac7 df3d bc59 973d
00000390: 1117 8a3d 2368 1e3c 54d2 343e 43d5 383c
000003a0: 6096 183e a2aa 543d 89c1 183d 7ec6 6b3e
000003b0: 7bd6 d03d f315 153d 82d6 babc 0d84 303e
000003c0: 7003 8b3b 9e4b fb3d e899 503e 1779 ee3c
000003d0: 8850 553d bc6c e03d 166b e13d 54c8 133e
000003e0: 8e56 3d3e b7b7 873d 53d7 8a3d 32e9 0e3e
000003f0: fc3d b73d dd98 7dbd 8bb7 173e ebec 38bc
0.09237347 -0.07074936 -0.04795444 0.11023576 0.006745637 -0.019541793 0.12459275 0.055910453
-0.07430649 0.15112846 -0.05650341 0.026892602 0.22150238 -0.015086168 -0.036646016 -0.05921223
-0.0027843786 -0.027661096 0.015829641 0.060771775 -0.024948126 0.07247041 0.07513928 0.07900427
0.11185262 -0.018188419 -0.04912562 0.24096325 0.04509366 0.16942236 -0.004555362 0.15013087
0.024175826 0.020326566 -0.080838166 -0.086041294 0.06200924 -0.04345433 0.15518665 0.1062236
0.119071834 -0.07793407 -0.05762518 0.027050164 -0.035761613 0.09932916 0.18856172 0.088597976
0.032593578 -0.0076218196 0.17450257 -0.021186262 -0.07644391 0.07735327 0.2300095 0.19647397
0.17351493 0.07374252 0.025826989 0.09557391 0.1280313 0.120971516 -0.061602574 -0.07460238
-0.07363794 -0.069082014 -0.024229743 -0.048627872 -0.05450509 0.08063065 0.05262792 -0.22786236
-0.068195716 -0.0735796 -0.035563838 -0.13085763 -0.23346052 -0.0069010346 0.055763744 0.15079556
-0.1138919 -0.036584362 0.084079124 -0.084983565 -0.006043956 0.12970802 -0.061828412 0.06350649
-0.03463924 0.061991274 -0.0891006 -0.15122092 -0.034619763 0.0016944315 -0.01745943 0.1342593
-0.11791899 -0.034393925 0.07820407 0.08169481 0.10185267 -0.06768821 0.06986465 -0.05451343
0.053542517 -0.019752337 0.06687479 -0.13916089 0.072435215 0.055403635 0.11132823 -0.08037553
0.052509323 -0.03777272 -0.1207336 -0.067555845 -0.0152839925 -0.07555154 -0.13334168 -0.12396182
-0.1106355 0.05329942 -0.14856279 0.15594356 0.047628578 -0.067117535 -0.04135108 0.081036575
-0.12696195 -0.0024963908 -0.13600223 0.10413068 0.11680385 0.0054570497 0.04314038 0.116862856
-0.09874269 -0.094002165 0.06692053 0.034853622 0.006374614 0.15362105 -0.16353017 -0.08056167
-0.054382913 0.1222424 -0.12735912 -0.1008092 0.14785865 0.12433807 0.06245424 -0.15068163
0.055712048 -0.0735402 -0.12770943 0.05211645 0.1579441 0.024341078 0.11065021 -0.11889838
-0.114610404 -0.12006292 -0.025848305 -0.11802739 -0.048631787 -0.054502152 0.04651337 0.031830657
-0.09002544 0.0045954185 -0.12270043 -0.07935677 0.09809189 -0.11288653 -0.042678587 0.026824981
0.06487101 -0.11065632 -0.06830397 0.07844398 -0.10202409 0.010761121 0.008762898 0.08271011
0.06468966 -0.07620424 0.013132826 0.081659116 -0.063018 0.0696076 -0.05491038 -0.07040812
0.16500273 0.04270611 0.003718533 0.07710019 -0.05646868 0.09339576 0.008479545 0.25233436
-0.06188739 0.024055926 0.06660267 0.031234499 0.15461476 0.09499942 -0.033707656 0.11261213
0.038256235 -0.018173598 -0.034587633 0.22091912 -0.06940263 0.1352 0.09997409 -0.0584381
0.11938669 -0.038325075 -0.07777691 0.035502605 0.1130664 0.13428788 0.13319322 0.09379949
0.03284804 -0.06465315 0.10926767 0.07390162 0.06742681 0.009668383 0.17658359 0.011281314
0.14901114 0.05192054 0.037293945 0.23024938 0.10197159 0.036397886 -0.022807363 0.17237873
0.004242353 0.12270282 0.2037121 0.029110475 0.052078754 0.109582394 0.11006753 0.14431888
0.18490049 0.06626838 0.06779351 0.13956144 0.089473695 -0.06191336 0.1481611 -0.011286954
