NLP Grammar Checker/models/grammar_checker_model.pth (torch, 161031 bytes, 11 tensors)

embedding.weight f4 [92, 8]
000000 51 6e 9c bf f9 97 a5 bf 07 9e 0e c0 69 fe f3 bf
       -1.2221166 -1.2937003 -2.2283952 -1.9062015
000010 e8 c8 67 3f ed be a6 bf 0a 2e 62 be 42 bc 85 3f
       0.90540934 -1.3027016 -0.22087875 1.0448077
000020 20 a4 15 3e b8 2c b3 bc 15 50 e5 be 0c a9 ca 3f
       0.1461339 -0.02187191 -0.4478766 1.5832839
000030 b1 cc 4d be fb 1e bc bd ca ec 70 bf e7 32 bb 3f
       -0.20097615 -0.091855966 -0.9411131 1.4624909
000040 4f f5 9b 3f 6b c2 5a bf fb 6b b3 bf 60 9a 83 3f
       1.2184237 -0.8545291 -1.4017328 1.0281487
000050 c4 11 c8 bd 6d 79 1f bf 6a 3b 52 bf 4a 49 80 bf
       -0.097690135 -0.62294656 -0.8212191 -1.0022366
000060 0f 02 5d bf d1 6f 28 c0 0d cc 24 bf 36 ff 58 3f
       -0.86331266 -2.6318247 -0.64373857 0.8476442
000070 2a 13 34 bf 53 86 c5 be 8a f4 87 3f 15 96 97 bf
       -0.7034174 -0.38579044 1.0621502 -1.1842676
000080 7d 58 e9 be e4 a3 af 3f f2 49 af 3e b4 31 e7 be
       -0.45575324 1.372189 0.34236103 -0.45155108
000090 77 db fc 3f d5 4e 90 3f 65 ba 52 bd e0 2f 8c 3f
       1.9754475 1.1274058 -0.05144729 1.095211
0000a0 e5 60 a4 3d 8e b1 5b 3f 6c 58 4e 3f af 50 9e bf
       0.08026294 0.858178 0.8060367 -1.2368373
0000b0 41 ae 24 bf c0 58 e8 3e 0b d9 46 3f 27 df ba 3d
       -0.6432839 0.4538021 0.7767493 0.09124594
0000c0 8a 0a 84 3f 9c 8a 8a 3f c0 bb 09 bd 2a b2 3e 3f
       1.0315716 1.082355 -0.033626318 0.74490607
0000d0 a2 45 92 bf 62 cd 94 bf f5 54 8d bf 6e 52 24 bf
       -1.14275 -1.1625178 -1.1041552 -0.6418828
0000e0 1b 92 e5 3f 7e 63 c6 3e 55 96 42 3f 3e 8a 8a bf
       1.7935213 0.38747782 0.7601064 -1.0823438
0000f0 c8 9e 00 3f 8a 3f 2b 3e 1f 71 9b 3e 6f c4 67 3f
       0.5024228 0.16723457 0.30359742 0.9053411
000100 ea 08 55 bf e6 3e 99 3f a6 a1 6f 3f 88 93 8a bf
       -0.83216727 1.197232 0.9360603 -1.0826273
000110 90 3e c9 be b4 0e b6 3e 88 70 83 bf bd 28 8a bf
       -0.39305544 0.35558093 -1.0268717 -1.0793682
000120 7e 8b 31 3f 7d ef 70 bf 64 1d 70 3f db b2 25 3f
       0.69353473 -0.9411543 0.93794847 0.64726037
000130 36 b0 fc 3f d3 b0 04 bf 3f 33 4b 3f ea 23 28 bf
       1.9741275 -0.5183231 0.7937507 -0.656798
000140 c1 36 0d bf 88 2e 21 bf 74 15 a8 3f 7c 5e cb bf
       -0.5516167 -0.62961626 1.3131547 -1.5888209
000150 81 ff 85 be 40 79 72 bf 21 b3 1f bf 87 5f 3b bf
       -0.26171497 -0.9471626 -0.62382704 -0.7319264
000160 3e 3d 4e 3e f1 e1 b7 bf bf e9 29 bf d6 a7 f6 be
       0.2014055 -1.4365827 -0.66372293 -0.48174924
000170 26 58 ec bd 70 9c 11 bf 7f 4d 51 bf d4 a0 8d bf
       -0.115402505 -0.5687933 -0.81758875 -1.1064706
000180 e9 22 3a 3e 11 a9 a3 bf 60 07 75 bf 5c 9f c0 3f
       0.1817738 -1.278597 -0.9571438 1.5048633
000190 02 50 cf bf 44 98 70 3d b0 4e ee bf 10 5b 9b bf
       -1.6196291 0.05873896 -1.8617764 -1.2137165
0001a0 85 af b0 bf 72 a0 57 be b7 c5 42 bf fb af 94 bf
       -1.3803564 -0.21057299 -0.7608294 -1.1616205
0001b0 8d ce 12 bf e7 7e 03 40 90 30 10 bf 22 c4 d1 be
       -0.5734642 2.0546205 -0.563241 -0.4096995
0001c0 81 1e 13 3e 0f 4b 82 bf d5 fe 13 bd db 55 d2 be
       0.14367105 -1.0179156 -0.0361317 -0.41081128
0001d0 50 e2 a9 3f 2d c6 46 3f 1d 4c cb bf 89 4f e2 be
       1.327219 0.7764614 -1.5882603 -0.44201306
0001e0 24 23 a8 bb fb 5a 35 3f 47 b3 df 3f e2 ba 3a 3f
       -0.005131142 0.7084195 1.7476586 0.7294141
0001f0 7f fb 71 3f 34 77 7e 3e 35 68 ef 3f a4 85 fc bf
       0.9452438 0.2485016 1.8703676 -1.9728284
000200 d8 95 4b bf f1 4a d9 3e a6 bf 5b 3e 89 74 33 3f
       -0.7952552 0.42439988 0.21459827 0.70099694
000210 1c a5 26 3e 1b a9 9a 3f 3b 46 88 3e ca 3e ec 3e
       0.16273922 1.2082857 0.26616082 0.46141654
000220 89 e2 59 3f ae 1e 8a be 25 1c e2 3f f1 b2 00 3f
       0.8511129 -0.26976532 1.7664839 0.5027304
000230 c0 fd 0b 3e 13 f6 b4 3f 31 f9 74 3f 35 ae b3 3e
       0.13671017 1.4137596 0.95692736 0.35093847
000240 ff 22 ad 3f 58 20 c2 bd 2c fb 6b 3f dd fc d7 3e
       1.3526305 -0.09478825 0.9218013 0.42185107
000250 29 47 05 be 37 ab 3f 3d 6e ec 09 c0 08 17 25 bf
       -0.13015427 0.046794143 -2.1550555 -0.6448827
000260 93 bf 5f bf d9 fe 7c be b6 6c 66 bd 69 93 ab bf
       -0.87401694 -0.24706592 -0.05625602 -1.3404361
000270 19 de 0d be 94 2f 6a bf 8c c1 82 3e 0c d2 16 be
       -0.13854255 -0.9147885 0.2553829 -0.14728564
000280 cc bf 9f 3f 34 c1 6a bf 93 01 7b be b7 56 d0 3f
       1.2480407 -0.91701055 -0.2451232 1.6276463
000290 ce 2b d2 bf 7a 3c dc be a8 95 ab be 6e 9d 8c 3f
       -1.6419618 -0.4301489 -0.33512616 1.0985544
0002a0 6a b5 94 be 8f d9 0c 3b 82 11 a3 be 6b 69 2c bf
       -0.29044658 0.002149198 -0.31849295 -0.67348355
0002b0 cd 9e 7b 3f 1c e0 93 be d6 28 38 40 d1 1f e2 be
       0.98289186 -0.2888192 2.8774924 -0.441649
0002c0 8b 06 18 40 0c e3 75 3d b1 38 c9 bc 0a 64 25 bf
       2.3753994 0.060030982 -0.024563165 -0.6460577
0002d0 41 a2 88 bf d5 dd ec 3e 0c 63 4a 3e 83 41 84 bc
       -1.0674516 0.46262994 0.19764346 -0.01614452
0002e0 c0 68 59 3f 0a 82 40 3f 4f 3f 6f 3d fe 40 6d 3f
       0.8492546 0.75198424 0.058409985 0.92677295
0002f0 a5 44 da bf 6a f2 24 3f 9e 6d ea 3e 09 25 66 3f
       -1.7052199 0.64432395 0.45786756 0.8990026
000300 0d 17 aa bf 77 f6 04 bd 5c 8f b7 3f a0 52 e7 3e
       -1.3288285 -0.03246161 1.4340625 0.45180225
000310 ab 77 a4 3c e2 28 09 3e 4a a1 10 3e f6 43 7b 3f
       0.020076593 0.13394502 0.14124027 0.98150575
000320 ab 59 4e be 23 aa 39 3f c7 34 f0 be a0 b7 95 3e
       -0.20151393 0.72525233 -0.46915266 0.29241657
000330 1a 59 a4 bf 07 cf ec be 81 7f 85 3f 22 0d 63 3f
       -1.2839692 -0.462517 1.0429536 0.88691914
000340 18 23 ab 3f 64 47 6e bf 42 28 83 3f aa e9 3c 3f
       1.3370085 -0.93077683 1.0246661 0.73794043
000350 1b 3d 2d be f6 2b 9c 3f b5 9f 49 3f 80 45 b6 bf
       -0.16917841 1.2200916 0.7875932 -1.423996
000360 21 86 8f bf e3 6a 9d bc 48 2c 2c bf 57 a1 c1 3f
       -1.1212808 -0.019216007 -0.6725507 1.5127362
000370 90 d4 03 bf 96 9c 52 bf e8 1b 01 c0 96 86 94 bf
       -0.5149622 -0.8227018 -2.0173283 -1.1603572
000380 48 66 52 3f 7b 8f d0 3e 71 53 a6 bf cc cc 8d 3f
       0.8218732 0.40734467 -1.2994214 1.1078124
000390 2f 27 2f 3f 9f 13 82 be 79 c9 11 c0 a5 18 e8 bd
       0.68419164 -0.25405595 -2.277922 -0.113328256
0003a0 62 28 9d 3e dd a9 97 bf 23 00 bf 3e 5d 37 96 be
       0.30694872 -1.1848713 0.37304792 -0.29339114
0003b0 4d b8 c0 bf 9c 3b b8 3e f4 fb 59 3e 6f d6 87 bf
       -1.5056244 0.35982978 0.21287519 -1.0612315
0003c0 53 b8 e8 bf f9 ec 82 bf 50 e4 e3 3f 59 5f d7 3f
       -1.8181251 -1.0228568 1.780405 1.6825973
0003d0 94 f4 06 3f 62 7e 0a 3e aa 0a c8 3e ac a0 e1 be
       0.52716947 0.13524774 0.39070636 -0.44067895
0003e0 f8 a3 33 bd 6a d2 51 3f 95 68 9d bf 01 de 64 bf
       -0.043857545 0.8196169 -1.2297541 -0.8940125
0003f0 57 8f 2e 40 81 74 80 3f a0 82 5f 3f bd 48 a4 3f
       2.7274988 1.0035554 0.8730869 1.2834698

lstm.weight_ih_l0 f4 [256, 8]
000000 1f aa e8 bd 0f 47 34 bd 27 10 00 be 9e 48 55 3c
       -0.11360573 -0.04401308 -0.12506162 0.013017802
000010 df 30 eb 3d 8c cc 9f bd 55 00 e7 bc f8 c4 fc bc
       0.11483931 -0.07802686 -0.0281984 -0.03085564
000020 dc 9c 4b 3e 98 64 d7 3d 55 1a 20 3e f6 4f 6b 3d
       0.19884056 0.105172336 0.15635045 0.057449304
000030 0a c2 a6 3d a3 b0 14 3c 3f 5a 96 3d 5c 45 90 3c
       0.08142479 0.009075317 0.07341432 0.017611198
000040 e0 9d 97 3d ea d8 83 3d 18 76 76 bd a2 4d f5 3c
       0.07403159 0.064378574 -0.060171217 0.029944245
000050 b7 c6 2c bd db 34 a6 bd 8d be 36 be 1a 0c 26 3d
       -0.042181697 -0.0811555 -0.17846127 0.040538885
000060 be 0b 0a be a2 e0 2b be c9 6f 3a bd 39 96 30 bd
       -0.13481042 -0.1678491 -0.045516763 -0.043112013
000070 86 82 11 3e c4 a3 f4 bd fd c8 c2 bc e8 2c f0 3c
       0.14209947 -0.11945298 -0.02377748 0.029318288
000080 bf c6 b1 bb ca c2 a4 3c 9d 23 26 be 8a 2e 2c 3d
       -0.0054253037 0.020112414 -0.16224523 0.04203657
000090 8d 1f 55 3d 67 7e 10 be be 00 03 bc 76 62 da bd
       0.052032042 -0.14110719 -0.007995782 -0.10663311
0000a0 ad 6b 32 3d 1e 0a 56 bd 74 4a 71 bb 20 1d dc bd
       0.04355972 -0.052255742 -0.003681806 -0.10747743
0000b0 52 24 2b 3e 16 f4 b0 bd 08 e2 04 bd 79 83 37 3d
       0.16713074 -0.08640306 -0.032442123 0.044803116
0000c0 39 aa 67 bd 46 87 09 be b2 d1 b2 3d bc 69 78 bc
       -0.05655882 -0.13430509 0.087314025 -0.015161928
0000d0 f8 32 cb bd 81 30 ef 3d 64 80 dd 3d b8 61 b5 bc
       -0.09921831 0.11679173 0.10815504 -0.022141322
0000e0 2f 57 89 3d ea f6 86 bd fa 9a bf bd e9 1d c0 bd
       0.06706082 -0.06590064 -0.09355731 -0.09380705
0000f0 01 35 1f bc a8 6f 64 be b6 45 d8 bd c7 56 76 3d
       -0.009717227 -0.22308218 -0.10560171 0.06014135
000100 34 68 3c be 27 6b 80 3d ec 16 f5 3c 9d 5d 3a bd
       -0.18399125 0.06270438 0.029918157 -0.045499433
000110 87 a2 92 3d 95 24 17 be 1f 9a bd bc aa 01 35 3e
       0.07159906 -0.14760049 -0.02314478 0.17676416
000120 f1 88 f3 3c c4 cf f6 bd 01 44 b2 bd b8 0c ac bc
       0.029728385 -0.12051347 -0.08704377 -0.021002159
000130 1a 2c 04 be 45 eb 62 bd 0f 16 39 3d b7 a0 82 3d
       -0.12907448 -0.05540015 0.045187052 0.0637831
000140 3d f2 01 3e ae b3 ba bd b6 a8 87 3c fe da 01 bd
       0.12690063 -0.091163024 0.01655994 -0.031702988
000150 87 ad 39 3d 27 db 29 be 1d 84 b8 bd dd a9 d5 bc
       0.045331504 -0.16587506 -0.090095736 -0.026081974
000160 f1 c5 4f bd 15 c2 26 be 84 d4 c4 3d 60 95 b2 3d
       -0.05072588 -0.16284974 0.09610847 0.08719897
000170 57 f5 41 3e a5 61 80 3d 88 56 88 bd 80 37 c5 bd
       0.18941246 0.06268624 -0.066571295 -0.096297264
000180 bb 8b 5c bc d9 8b 22 3d c5 54 23 be 9e 12 b5 bd
       -0.013461049 0.03968415 -0.15950306 -0.088414416
000190 8f 99 71 3e 30 a9 2e be 8c 3e 50 bd 48 2c ba 3d
       0.23593734 -0.17056727 -0.0508409 0.09090477
0001a0 a3 b6 2e 3d 9d c2 b4 bd 19 b5 f6 3b f3 2e a7 bd
       0.042654645 -0.08826182 0.0075289127 -0.08163252
0001b0 9c df 1f 3e 08 b9 9f 3d c7 46 c7 bc fe 1d 1c be
       0.15612644 0.07798964 -0.024325741 -0.15245816
0001c0 e5 8f 98 bd 6d a2 6d be d2 4b dd 3d 05 9c 17 3e
       -0.07449321 -0.23206492 0.10805477 0.1480561
0001d0 38 ad 2e 3e 52 37 5f bc 6e 2b b2 3d cb 33 3a be
       0.17058265 -0.013624029 0.0869969 -0.1818382
0001e0 1b 84 8d 3c 3c 68 f2 bb 0d 1c 20 3d bd ef 5e bd
       0.017274907 -0.0073976796 0.03908925 -0.05442785
0001f0 85 78 da bb 98 3e 3c be 8b 01 b9 bd a4 50 17 3d
       -0.006667199 -0.18383253 -0.090334974 0.03694214
000200 53 33 30 be 39 03 c5 bd 3d 17 3b be 74 f4 bb bd
       -0.17207079 -0.09619755 -0.18270583 -0.09177485
000210 c0 8b 19 bd 1d c2 18 be 05 93 03 3e 91 25 a6 bc
       -0.03748679 -0.14917798 0.12849052 -0.020281585
000220 fe 1e 76 3c 90 24 33 be cf 97 d1 bd d3 9b e9 bd
       0.015022038 -0.17494416 -0.10234033 -0.11406674
000230 10 ad 18 3e 7b 87 a1 bd 42 98 f0 3d 4c 6e 35 3c
       0.14909768 -0.07887169 0.11747791 0.01107366
000240 0b 01 d1 3b 4f 96 02 3d de 3f af bd 62 3f 81 3d
       0.006378298 0.031881627 -0.085571036 0.063109174
000250 d0 03 12 bd a2 8b ba bd 38 89 6a 3d 77 82 1d be
       -0.035648167 -0.09108664 0.05725977 -0.153818
000260 39 a4 cf bd 82 b5 34 be 3f ac 0b 3e 71 b2 df 3c
       -0.10138745 -0.17647365 0.13639925 0.027306767
000270 eb 0c 05 be e5 ec 37 3e a1 b0 fa 3d 22 37 bf bd
       -0.12993209 0.17961462 0.122407205 -0.093366876
000280 07 60 0a 3e 83 fa 14 be 99 c1 04 3e 25 2e 91 3d
       0.13513194 -0.14548688 0.12964477 0.070888795
000290 47 22 ef 3d 8b 1a 89 bb f9 83 d2 bd 66 be 06 be
       0.1167646 -0.0041840724 -0.10279078 -0.13158569
0002a0 99 45 71 be 5f 69 03 be d6 86 33 3d e7 3e ab bd
       -0.23561706 -0.12833165 0.04382976 -0.08361607
0002b0 55 be 7e 3e bc 3b 90 bd 0c 6d 53 3b 11 3d cd bd
       0.24877293 -0.070426434 0.0032261042 -0.10021413
0002c0 c5 11 5b 3d a4 73 cf bd a8 14 64 3c 0c c6 e9 bc
       0.053483743 -0.101294786 0.01392094 -0.028536819
0002d0 b8 24 c4 3d 76 c9 33 3d e5 25 a1 bc c4 5a 8c 3c
       0.09577316 0.0438933 -0.01967139 0.017133124
0002e0 71 c1 26 3b 0d 35 0f be f0 f0 b1 3c 64 3e 91 bd
       0.002544489 -0.13985081 0.021721333 -0.07091978
0002f0 8c b3 19 3d f2 a8 5d bc 08 1b 1c be 39 fe 72 bd
       0.037524745 -0.013529049 -0.15244687 -0.059324477
000300 cd c0 1d bd ad 57 f8 bd e5 cd 0f 3d 23 fd cf bd
       -0.038513947 -0.12126098 0.035108466 -0.10155704
000310 b0 7b cb bc f4 f6 89 bd a2 e0 85 bd 2b 0c 47 3d
       -0.024839252 -0.06736556 -0.06536986 0.04859559
000320 2d 6b 5c 3d 13 a3 7a be 20 62 f1 bd 20 a7 1f be
       0.05381315 -0.2447627 -0.11786294 -0.15591097
000330 e9 51 dc 3d 80 ac 31 bd 63 57 a4 bc b1 02 aa bc
       0.107578106 -0.0433774 -0.0200612 -0.020753236
000340 08 e5 87 bc 62 73 e5 bc da 56 10 bd ba 07 57 3d
       -0.016588703 -0.02800912 -0.035239078 0.052497603
000350 84 f3 0b bd 90 05 6d 3d 62 19 9c bd 21 dd f3 3c
       -0.03416778 0.057866633 -0.07622029 0.029768528
000360 1d cd fe bd 11 03 a6 bd 55 de 87 bd 10 9e eb bc
       -0.12441466 -0.081060536 -0.06634203 -0.028761894
000370 29 13 6d 3e f9 df 35 be bd ac bb ba da 92 0f bb
       0.2315184 -0.1776122 -0.0014318448 -0.0021907599
000380 60 33 01 be 55 99 fa bd 84 1b 12 be 5a e3 dc 3c
       -0.12617254 -0.12236277 -0.14268309 0.026963878
000390 30 14 90 3d 9a fd 5d be 97 58 83 3b 75 82 09 3d
       0.070351005 -0.21678773 0.0040083635 0.03357168
0003a0 a1 9d a0 3d d2 3c 02 be ed 98 8d 3d 26 e2 6c 3c
       0.07842565 -0.12718514 0.06913934 0.014458215
0003b0 e0 97 23 bd c4 0a 13 bd cc 80 98 bc 04 ed 08 3d
       -0.03993976 -0.03589894 -0.018616103 0.03342916
0003c0 01 d4 33 be ba 55 8c bc be 3d de 3d 2c da 4b 3d
       -0.17561342 -0.017130721 0.1085162 0.04976861
0003d0 f9 9b bb bd 8f 63 9f bc 9d f2 f8 3c 84 9a 91 3c
       -0.09160609 -0.019456653 0.030389125 0.017773874
0003e0 f4 33 8c bd 0a 69 ee bd ab 11 4f be 49 c1 4d bd
       -0.06845847 -0.11641128 -0.20221584 -0.05023316
0003f0 b6 1b ae bb 51 f6 e0 bc 4a f5 43 be d6 25 48 3d
       -0.005313362 -0.027461203 -0.19136539 0.04886421

lstm.weight_hh_l0 f4 [256, 64]
000000 1e 33 24 be 07 3e 47 3e 8b a9 5b 3e f9 ca aa bd
       -0.16035125 0.19457255 0.21451394 -0.08339495
000010 ab 37 02 3e 10 b5 99 3d 1a 65 4d 3d df 7d 5e 3d
       0.12716548 0.07505238 0.050145246 0.05431926
000020 8f 52 41 3e 76 e5 50 3c 3e 19 9e 3c 8e 45 83 bd
       0.1887915 0.01275002 0.019299146 -0.06409751
000030 fe 0d b3 3d 60 84 be 3c 3a 9c 15 3d 4f a0 2f bc
       0.08742903 0.02325648 0.036525942 -0.010719373
000040 d7 04 d1 3c b6 d1 e9 bb fe 49 48 3e 2c 9c a5 3d
       0.025515003 -0.007135595 0.19559476 0.08086428
000050 37 43 95 3d 1c 81 05 3d 1c 22 09 be 07 dc 38 bd
       0.07288211 0.03259383 -0.13391918 -0.04513171
000060 64 1f a6 bd fa 0c e7 3d 8f ef 6c be 25 0e 85 bc
       -0.08111456 0.11281772 -0.2313826 -0.016242096
000070 78 75 16 3e af 95 0d be 09 ec 05 3e 4b 6e 2b 3e
       0.14693248 -0.13826631 0.13078322 0.16741292
000080 12 7b 43 be a3 f0 bc bd 18 dd 61 3e c4 6c 43 be
       -0.19089916 -0.09225585 0.22056997 -0.1908446
000090 fe 39 87 3d b4 57 0a be 9b 42 5d bd c9 65 16 3e
       0.06602858 -0.13510019 -0.054018598 0.14687265
0000a0 41 df 11 3d 4a 9e 0c 3e 14 4e 0d 3e f8 42 6f bc
       0.035613302 0.13732257 0.13799316 -0.014603369
0000b0 03 3a ab bd a3 40 25 3e e4 0a b6 bc 30 30 3c bc
       -0.08360674 0.16137938 -0.02222199 -0.011486098
0000c0 80 79 be 3d b2 23 42 3b e6 28 ef 3d 7d cb 17 bc
       0.09300518 0.0029623327 0.11677723 -0.009264824
0000d0 b4 2a 67 bd 87 c1 21 bb 0d 61 0d bc 3e de f7 3c
       -0.05643721 -0.0024682002 -0.008629096 0.03025734
0000e0 8e 66 ed 3d 7f d9 58 bd fb a9 25 be dc 62 42 be
       0.115918264 -0.052941795 -0.16178124 -0.18983024
0000f0 dc 61 3b be 2d 52 60 3d 95 ff 4c be 9d 65 0f 3e
       -0.18299049 0.05476587 -0.20019372 0.14003606
000100 98 75 86 bd 14 eb 06 3e ca 85 ab bc b4 25 77 bb
       -0.06565398 0.13175613 -0.020937819 -0.0037711682
000110 7d 83 1e be 98 e3 68 3d f6 35 0f be 73 a6 01 be
       -0.15479846 0.056857675 -0.13985428 -0.12661152
000120 b7 9f 65 3d aa 40 13 3d 50 6c fe 3d 8c 88 e5 3b
       0.05606052 0.03595034 0.12423003 0.007004803
000130 6a be db 3d 77 26 ce bd 81 0d 61 be 1c e0 ce bd
       0.10729678 -0.1006593 -0.21977808 -0.10101339
000140 7a ae 42 be 3c ae 3d be 73 80 3e 3c ce 83 4c bd
       -0.1901187 -0.18523496 0.011627304 -0.049930386
000150 11 c2 e8 3d af f4 88 bd 85 8a 42 3c 28 27 25 bd
       0.1136514 -0.06687295 0.011873846 -0.040320545
000160 fc ef 06 be a7 df 0f 3e de 41 0f bd 05 d0 8b bd
       -0.13177484 0.1405016 -0.034974925 -0.06826786
000170 90 b8 b8 bd 97 ae 25 3c a2 fe 96 3a 77 99 70 3a
       -0.090195775 0.010112426 0.0011519978 0.00091781415
000180 8f be 42 be 58 cf 7a bc 7c 0c 34 bd a1 46 1d be
       -0.19018005 -0.015308224 -0.04395722 -0.15358974
000190 5a 42 8f 3d ff 98 28 be 35 c8 2f 3e 02 ca 98 3c
       0.069950774 -0.16464613 0.17166217 0.018651012
0001a0 1c b8 a1 bd 89 3d 82 3d 6a c0 c7 bd 08 d6 42 3e
       -0.07896444 0.06359393 -0.09753497 0.19026959
0001b0 f9 58 08 3d 05 31 4a 3d 1a 29 1e be 3a 91 b7 3d
       0.033287976 0.049363155 -0.15445367 0.08963247
0001c0 08 90 4f 3e 47 e8 3a 3e 78 60 2b bb a0 ea 63 be
       0.20269787 0.1825267 -0.002615003 -0.22257471
0001d0 d2 5a 0a 3d dd b8 ad bc 2c fb 5a 3e 5e 96 83 3d
       0.03377802 -0.021206314 0.21384877 0.06425165
0001e0 5f 91 4a bd 95 f0 23 3e 73 8f 74 bd fd 09 03 bd
       -0.049455043 0.16009744 -0.059707116 -0.031991947
0001f0 e3 ab 36 bd 64 d5 59 bd 87 ce 9d 3d 60 b0 03 be
       -0.044597518 -0.05318202 0.077054076 -0.1286025
000200 36 49 3a bd 43 b2 00 3e c8 d7 32 3e 45 70 0b 3e
       -0.045479976 0.12568001 0.17465127 0.13617046
000210 0d 06 bf 3b ba bc 36 3e 32 e3 dd 3d f7 62 f4 bc
       0.0058295787 0.17845431 0.1083435 -0.029832346
000220 f0 3a 1c 3e e6 bf 61 3c 6a 11 8d 3c 59 8b 4e 3e
       0.15256858 0.013778662 0.017220218 0.20170344
000230 01 ca c6 3c d1 65 8f bc bf 1e 16 bd 97 d0 74 bd
       0.024266245 -0.017504605 -0.036650416 -0.05976924
000240 21 37 38 bc e2 55 6b bd 3c 0c cf 3d 17 7f 21 bd
       -0.0112436125 -0.05745495 0.101097554 -0.039427843
000250 80 a6 f1 3c a3 7a 95 bb 7b b9 d9 3b 84 ef cd bd
       0.029498339 -0.0045617386 0.0066444254 -0.100554496
000260 78 28 60 3d cb b4 ef 3d 83 bb 34 3d ed 6b 25 bd
       0.054726094 0.117044054 0.044124138 -0.04038613
000270 97 1d 00 be b1 93 4b be 85 5e d2 3d dd 96 e8 bd
       -0.12511288 -0.19880559 0.102719344 -0.113569
000280 dd 29 1f be 31 2b 5f bd 2a 7e 32 bc 5d 0b 5f be
       -0.15543313 -0.05448455 -0.010894338 -0.21781678
000290 c3 34 b5 3d 1f 23 98 bd 37 24 aa 3d a5 dc eb 3d
       0.08847954 -0.07428574 0.08307689 0.11516694
0002a0 dd d5 dc 3d db cc 2b bd 42 5c ed 3d 7a 5e ca 3d
       0.10782979 -0.041943412 0.115898624 0.09881301
0002b0 cb ea e6 3d ae 60 7b 3d 45 5f 92 bc 6e 5f 31 3e
       0.11275252 0.061371498 -0.017867694 0.1732156
0002c0 f1 37 c8 3d dc 64 fa 3c f6 8a 8c be a4 7b 13 be
       0.09776295 0.030565672 -0.2744977 -0.14402634
0002d0 90 20 5f 3e 61 ab 01 3c 23 dd 43 3d b1 ee b2 3d
       0.21789765 0.007914395 0.047818314 0.08736933
0002e0 ad f1 28 be 71 6a 11 3e 82 40 e2 3b 56 cd b3 bd
       -0.16498442 0.1420076 0.0069046626 -0.08779399
0002f0 fe 75 55 be 47 3d 9b bd f0 08 31 bd 36 5b b0 bd
       -0.20845792 -0.07580047 -0.043221414 -0.08611147
000300 a4 1c 7e be 5c 5a ba 3d 6e 17 51 3e f7 ad 94 3d
       -0.24815613 0.09099266 0.20419094 0.07259744
000310 9e c9 3e be a4 d6 74 3e 77 f0 3e 3e a9 09 f5 bd
       -0.18631598 0.23910004 0.18646418 -0.11964733
000320 91 12 03 3d a2 de 1c be a7 ad 78 bd 4f 3f d6 3d
       0.03200013 -0.15319303 -0.060712483 0.10461294
000330 3a 20 24 3e a1 82 b2 bd b2 5c 70 3c f3 4a 77 bd
       0.16027918 -0.08716322 0.014670538 -0.06037421
000340 d8 db 61 bd 08 8f 50 bd f6 46 ff 3c b7 09 55 3e
       -0.0551413 -0.050917655 0.031161766 0.20804487
000350 6b d8 0a be eb 95 dc 3d f8 f3 3a be 38 30 b0 bd
       -0.1355912 0.10770782 -0.18257129 -0.08602947
000360 2e 7a 41 be 04 6f 2f 3e e9 4e 5c be dd b0 fa 3c
       -0.18894264 0.17132193 -0.21514477 0.030601913
000370 6b 70 7a 3d cb 32 a9 bd 8a 81 70 3e f7 e1 ee bb
       0.061142366 -0.08261641 0.23486915 -0.0072901207
000380 42 2f 0d be 8c 99 a5 bd f9 8d e1 3d 74 6d a3 bb
       -0.13787559 -0.08085927 0.11013407 -0.004987413
000390 c9 66 5e 3c 65 a7 aa 3d 59 16 c8 3c d2 13 09 bd
       0.013574311 0.08332709 0.024424719 -0.033466168
0003a0 28 e9 6e 3c f7 97 a0 bd 82 8c 23 3e 12 94 50 3b
       0.014581956 -0.07841485 0.15971568 0.0031826538
0003b0 39 dc 48 bc 68 8c 85 3e b3 a5 12 be 38 40 95 bd
       -0.012259536 0.26083684 -0.14321022 -0.072876394
0003c0 0c 92 d5 3d df 9e d2 bd 22 3f 48 3d bf e0 60 3d
       0.10428247 -0.102842085 0.048888333 0.054901835
0003d0 b8 2b 0a bd ee fa 2d bc 7b 61 21 bc 10 30 5c 3e
       -0.0337331 -0.010618908 -0.009849901 0.2150271
0003e0 53 aa ca 3d db eb 0a 3e 14 af 38 be a5 da 6c bd
       0.09895768 0.13566534 -0.18035537 -0.057825703
0003f0 5a 5e 00 be eb 17 20 3e 03 5b d0 bd fa 9a c1 3c
       -0.12535992 0.15634124 -0.10173609 0.023633469

lstm.bias_ih_l0 f4 [256]
000000 20 ad 10 3e 57 7a 31 3e 59 72 8a bd 9d 09 d4 3c
       0.14128542 0.17331825 -0.06760091 0.02588349
000010 ba d0 68 3e 76 0e cd 39 01 62 08 bd 31 fc 3c 3e
       0.22735873 0.0003911142 -0.03329659 0.18455578
000020 46 ae dd 3d 9b 36 22 3e 92 48 30 3e 02 f7 e3 bb
       0.10824256 0.15841143 0.17215183 -0.006956936
000030 0e 55 88 3d 41 69 20 3e 80 91 17 3e f4 83 b9 3a
       0.06656848 0.15665151 0.14801598 0.0014153705
000040 8a 96 7e 3d b7 62 cd 3d 3a d4 22 3e e5 04 3e 3e
       0.062155284 0.10028594 0.1590127 0.18556555
000050 1e 3e cd 3d f0 64 35 bc bb 3b 3b bd 63 71 f9 3d
       0.100216135 -0.011071429 -0.04571126 0.1217983
000060 7c 4b 4b 3d 1b a6 3f bd 82 ce df 3d cb 15 07 3e
       0.049632534 -0.04678927 0.1092806 0.13191907
000070 72 40 c2 3d 92 e4 4d 3e 76 08 46 3e da 97 a0 3c
       0.09484948 0.20106724 0.19339165 0.019603658
000080 ff 31 c8 3d 9d e6 b4 3d ca 61 f1 3d df 4b 1e 3e
       0.09775161 0.088330485 0.1178623 0.1545863
000090 22 19 d6 3c 3e e2 72 3e 0a 2c 11 3e fa ff 27 3e
       0.026135031 0.23719117 0.14176956 0.16406241
0000a0 ef bf 88 bd 3e 96 2c 3e e2 a3 af 3d 9a 70 67 3d
       -0.066772334 0.16854188 0.0857618 0.05650387
0000b0 f6 1d 87 bd a3 38 23 3c 0c 26 d1 3d c7 93 9e bb
       -0.065975115 0.009962234 0.10212335 -0.004839394
0000c0 0e 79 52 3e 7f 4a 2c 3d 36 4d b2 3d 7f 3a 25 3c
       0.20553991 0.042063233 0.08706133 0.010084747
0000d0 3f 6d cf 3d f9 4b 96 3c 51 ce 24 3e c2 77 89 3b
       0.10128259 0.018346773 0.16094328 0.0041951844
0000e0 8c fb 55 3e 10 29 b7 3d 56 4a ee bc eb f8 cd 3d
       0.20896739 0.08943379 -0.02908818 0.10057243
0000f0 25 eb 12 3e cb 72 10 3e 4b 61 9e 3d 4a 81 52 bc
       0.14347513 0.1410629 0.07733401 -0.012848208
000100 db 3d ca 3d ba 22 49 3d 3a 6c f0 3b d3 9c 93 3c
       0.09875079 0.049105383 0.0073371204 0.018019116
000110 d5 c6 85 bc 63 99 d5 bc f4 36 79 3d 4c 10 8a bd
       -0.016330162 -0.026074117 0.060843423 -0.0674139
000120 3e 27 75 3d da 53 09 3d eb 60 06 3d 41 10 8f 3d
       0.059851877 0.033527233 0.032807272 0.06985522
000130 b4 f5 cf 3d 10 0f 2c 3d a3 64 43 bb 91 7d bd bd
       0.10154286 0.042006552 -0.0029814623 -0.092524655
000140 9e 81 22 3a d6 23 e0 3c 9f 81 02 be a6 71 bc 3c
       0.0006199124 0.027360838 -0.12744759 0.02300341
000150 a0 c9 e7 3c a3 05 52 3d ce a4 5b 3d 7d 4f d2 3c
       0.028294384 0.051274907 0.053623967 0.025672669
000160 b1 0b 15 3e 72 df f6 bd 67 fc 08 3d 6b 40 52 bd
       0.14555241 -0.120543376 0.033443835 -0.051330965
000170 13 33 d8 bd 60 61 9e 3d 2e 01 09 3d 3a 40 10 bd
       -0.10556617 0.077334166 0.03344839 -0.0352175
000180 c8 7e 0e 3e 20 73 2a 3d a4 1b 99 bc 4b cc 5e bd
       0.1391555 0.041613698 -0.018689938 -0.054394048
000190 39 05 25 3e 5c 9f 32 3e 8a 91 29 3d 8e 39 cd 3d
       0.16115274 0.17443603 0.041398562 0.10020743
0001a0 eb 5c c2 bd 97 1b 49 bd 71 d1 07 be 84 bb 40 ba
       -0.09490379 -0.049098577 -0.1326349 -0.0007352161
0001b0 f6 96 f4 bd b0 6a 6d bd 57 e2 49 bd 2a b6 7a 3d
       -0.11942856 -0.057963073 -0.04928812 0.06120888
0001c0 c4 71 ed 3b 00 51 fa bc db f9 90 3b ff ea 07 3e
       0.007246228 -0.030556202 0.0044243163 0.13273238
0001d0 3e ca a3 3a 67 49 9b 3d 11 b7 d6 3d 07 75 a7 3d
       0.0012496186 0.0758236 0.10484136 0.08176618
0001e0 5c 35 c2 3d 85 5b 35 bc 63 c8 d7 bd 35 ac 2a be
       0.09482834 -0.011069183 -0.105362676 -0.16667254
0001f0 29 16 d5 3d e1 e2 a0 3d 8f f3 77 bd 88 67 4b 3b
       0.10404617 0.07855774 -0.06053501 0.0031037051
000200 b7 79 6d bd 2b ef f0 3d 39 fd d5 3d c0 a5 e9 3d
       -0.057977404 0.11764368 0.10448689 0.114085674
000210 ad 6d 76 bd 03 20 9d 3d b1 a9 49 3c 57 43 ce bd
       -0.06016319 0.076721214 0.012308524 -0.10071438
000220 6f 75 df 3d ef ed a9 bd 72 96 8f 3d bd 5f 28 3d
       0.109110706 -0.08297335 0.07011117 0.04110693
000230 9d b1 1e 3d 98 4c de bd 17 f7 42 bd 36 4f ff bd
       0.038743604 -0.10854453 -0.047598924 -0.1246628
000240 50 82 01 be 6e c6 de bd 70 95 c6 bb b3 22 a3 bd
       -0.12647367 -0.10877691 -0.006060295 -0.07965603
000250 86 69 b2 3d ba d4 ea 3c d8 f3 c0 3b 59 78 04 be
       0.08711533 0.028665889 0.0058884434 -0.12936534
000260 da 65 d0 bc d2 1b e9 3d c5 83 ec bd ab 40 cf bd
       -0.025439192 0.113822594 -0.115485705 -0.10119756
000270 b0 b0 88 3d a2 8c df bd 52 f2 f8 3d 36 8a 4b bc
       0.066743255 -0.109154955 0.12155594 -0.012423089
000280 e1 46 8e bd 2b a8 5e bd 83 da d7 3d 72 4c 22 be
       -0.06947113 -0.054359596 0.10539725 -0.15849474
000290 3d 87 13 3e a9 70 89 3d 28 3d 5f 3d 34 bd 54 3d
       0.14407058 0.06710941 0.054501683 0.05193825
0002a0 32 2e f1 3d 49 f7 06 3e 68 ef 23 bd 22 7e 8f ba
       0.11776389 0.1318027 -0.040023237 -0.0010947625
0002b0 3e 33 f8 3c e7 8c c8 3d 78 aa b8 bd 47 c1 ef bc
       0.030297872 0.097925 -0.09016889 -0.029266967
0002c0 59 ef 09 3e c0 8e 91 3d c2 c1 1c be c4 56 ff bd
       0.1347021 0.071073055 -0.15308288 -0.12467721
0002d0 33 5e 94 bd d8 9c bd bd 7f 35 60 ba 23 e1 b9 3d
       -0.072445296 -0.09258431 -0.00085528934 0.090761445
0002e0 36 92 11 be 4f 81 8f 3d 76 7d 2b be 78 70 b9 bd
       -0.14215931 0.070070855 -0.16747078 -0.09054655
0002f0 cf 23 cd bd 49 99 4e 3c b7 72 65 3d e7 54 b4 3c
       -0.100165956 0.012609788 0.056017604 0.02201314
000300 7e d2 26 3e 00 2e 4b 3e 40 ce 8d 3d 1e 87 83 3d
       0.16291234 0.19841766 0.06924105 0.06422256
000310 26 0a 46 3e 16 c4 90 3c 7e 01 aa 3d 80 c7 90 bc
       0.19339809 0.017671626 0.08301066 -0.017673254
000320 9d 4e 00 bd 2d 4f 0c 3e 19 34 1f 3e 6f f2 c4 3d
       -0.03132497 0.13702078 0.15547217 0.09616553
000330 42 ae db 3d 00 ed e4 3d 18 e9 53 3e 60 72 f6 3d
       0.107265964 0.11178017 0.20694387 0.12033534
000340 d2 23 51 3e f0 57 0d 3d 25 c3 0c 3d 7d 1b 40 3e
       0.2042382 0.03450769 0.03436579 0.18760486
000350 67 08 41 3e 38 e7 e5 3c b6 ba 8c bc 58 00 ab 3d
       0.18850861 0.028064355 -0.017178874 0.08349675
000360 de bc 4c 3e 90 98 ad 3b d5 21 40 3d 36 34 ee 3d
       0.19993922 0.005297728 0.046907265 0.11631052
000370 3d 5c 2e bc 89 b7 1c 3e 4c 4c 47 3d 49 e8 c1 3d
       -0.0106421085 0.15304388 0.048656747 0.09468133
000380 0b d4 42 3d 38 a5 80 bd 3a fd 96 bd 52 b5 24 3e
       0.0475655 -0.06281513 -0.07372518 0.16084793
000390 76 4c 3d 3d 10 70 c3 3d 8e b9 2d 3e 81 8b 33 3e
       0.046215497 0.095428586 0.16965315 0.17533685
0003a0 13 3b 77 bd 76 39 b1 3d 7b 2a 55 3c 94 8c 54 3e
       -0.060359072 0.08653538 0.013010616 0.20756751
0003b0 ae 61 87 bc 7a 87 cc 3c bc 5a 93 3e d0 ee ac 3d
       -0.01652607 0.024966944 0.28780162 0.08443987
0003c0 20 3a 42 3e 0b 3f 0a 3e bd c9 64 3e f4 4b fe 3d
       0.18967485 0.13500611 0.22342582 0.12416831
0003d0 05 56 32 bd 39 d4 2a 3e 90 fe 5b 3e 12 d3 d4 3d
       -0.043539066 0.16682519 0.21483827 0.10391821
0003e0 29 52 ee 3d 8d 24 e3 bc 3b a1 b2 38 a6 6c 4c 3e
       0.116367646 -0.02772739 8.517733e-05 0.19963321
0003f0 93 9f 01 bd 09 10 19 3e 4f 7a a8 3d c7 61 8b 3c
       -0.031646322 0.14947523 0.082264535 0.017014397

lstm.bias_hh_l0 f4 [256]
000000 c7 af f2 3c 40 20 ed 3d cd fd f5 3c df ea 38 3e
       0.029624833 0.11578417 0.030028248 0.18058346
000010 f3 5e 9f 3c 33 3b d4 bb cf ee 55 3d fa 77 2e 3e
       0.019454455 -0.0064767837 0.0522297 0.17037955
000020 18 3a a5 3d 8f df 04 3e 73 4e 12 3e 0e df fe 3d
       0.08067721 0.12975906 0.14287739 0.12444888
000030 b7 25 08 3e 06 ad 41 3c 4c 8f e0 3d 4b 64 af 3d
       0.13295637 0.011821037 0.10964832 0.08564051
000040 9e 9e 2d 3c ae 65 24 bd 96 0f 3c 3e d5 07 6a 3e
       0.010596899 -0.04013603 0.1836532 0.2285455
000050 cc 10 05 3e 14 c9 04 3c dc e9 43 bd 1b 3e ab 3d
       0.12994689 0.008104581 -0.047830448 0.08361455
000060 16 fe 38 3e 08 68 09 3e e3 c7 68 bd f8 90 a4 3d
       0.18065676 0.13418591 -0.05683125 0.08035463
000070 79 91 8f 3d a6 9e 31 3e c1 0f 42 3e dd 9f 78 3e
       0.070101686 0.17345676 0.18951322 0.24279733
000080 32 88 1d 3e 4f 36 28 3e ad 48 0e 3d 71 e1 b4 3d
       0.15383986 0.16426967 0.034737278 0.08832062
000090 75 52 0b 3e c4 d8 1d 3e 6b 0d 09 3e 79 2f 0f 3d
       0.13605674 0.15414721 0.13384025 0.034957383
0000a0 99 fd ce 3d 1e cd 4a 3d 16 75 25 3e f7 4d f5 3c
       0.10106964 0.04951202 0.16157946 0.029944403
0000b0 56 40 fe 3d 7b e4 f9 3d 5b 56 63 3e 5d c6 59 3d
       0.12414615 0.12201782 0.22200911 0.05316769
0000c0 5e 5e 66 3e 31 b1 7a 3e 33 65 6f 3e 10 30 f6 3d
       0.22496936 0.24481656 0.23378448 0.12020886
0000d0 47 b8 9f 3d 80 00 fb 3d 77 8b a3 3d e8 e7 36 3e
       0.0779882 0.12255955 0.07985585 0.17861903
0000e0 33 72 f3 3c 54 52 14 3e b2 16 3e 3e c4 d4 9f bc
       0.02971754 0.1448453 0.18563345 -0.019510634
0000f0 08 85 7b bc cf 31 80 3e 1e 80 27 3e 2b d6 43 3e
       -0.015351541 0.25038 0.16357467 0.19124667
000100 a3 ec a3 bb 0e 0e 14 3e d7 50 4c 3c 18 37 87 bd
       -0.0050025745 0.14458486 0.012470446 -0.06602305
000110 8d 98 12 be d2 c6 b0 bd 66 81 63 3d be 1d db bd
       -0.14316006 -0.08631672 0.055543326 -0.10699032
000120 88 64 a5 3d 95 78 fd 3d a5 cd 99 bd 1a 39 54 bb
       0.080758154 0.12376515 -0.07509927 -0.0032382668
000130 f8 89 c6 bd 76 35 1e 3e ce ea df 3c 04 a9 77 3d
       -0.09694284 0.15450081 0.027333643 0.06046392
000140 40 5d 88 bd bd 4a 6d 3c 3e c7 06 be 84 4a 09 3e
       -0.06658411 0.014483151 -0.13161942 0.13407332
000150 6c b3 02 bd 86 91 19 3e b4 14 90 3b 06 5c 07 3e
       -0.03190939 0.14996919 0.0043969993 0.13218698
000160 32 5b de 3d a8 fe 05 be ae 5f d1 bb 75 13 98 bd
       0.10857238 -0.13085425 -0.0063895797 -0.07425586
000170 08 7e b6 bb 0f 9c 34 3d 04 6d 4e 3d 01 f7 c7 bc
       -0.0055692233 0.04409414 0.050396934 -0.024409773
000180 53 27 bf 3d 71 b8 a0 3d e5 a6 b6 bd 49 de 11 3d
       0.093336724 0.078476794 -0.08918551 0.03561238
000190 8f f6 93 3d 30 48 93 3d a9 97 90 bd 4f 81 05 bd
       0.07224762 0.07191503 -0.07060177 -0.03259402
0001a0 11 66 f7 bc a7 1f ef bd 4b c9 17 be 0d 71 05 bc
       -0.030200036 -0.11675959 -0.14822881 -0.008144629
0001b0 6c d9 12 3c 92 80 3b 3d ac d2 c3 bd f5 10 f4 bc
       0.00896297 0.04577691 -0.09561667 -0.029793242
0001c0 f1 54 31 3d 64 02 5c bc 30 1f 09 3e 90 77 98 bd
       0.043293897 -0.013428304 0.13390803 -0.0744468
0001d0 05 c1 f7 bc 8a 91 bf 3d 55 18 5e 3d cf 2c f2 3d
       -0.030243406 0.09353931 0.054222424 0.11824953
0001e0 84 1b 3a 3d d4 da 83 bd 5d 1b 1c 3d 0d 7b 4a bd
       0.045436397 -0.064382225 0.038112033 -0.049433757
0001f0 ff 6c 0d 3e 80 93 33 3d 15 9e 6b bd ef 0e 33 be
       0.1381111 0.04384184 -0.057523806 -0.17486165
000200 a3 fd 09 be c0 dd db 3c d2 8d 12 3e 7e 0d 2f 3d
       -0.13475661 0.026839137 0.14311913 0.042737477
000210 80 80 c9 bc 0d 15 1d 3e 53 90 93 3d b5 89 dd bd
       -0.024597406 0.15340061 0.07205262 -0.10817281
000220 51 ca c6 3d d5 53 48 bd 77 e1 cb 3c 86 8f 51 3c
       0.097065575 -0.048908073 0.024887783 0.012790566
000230 a4 0b 4e 3d cf 76 ea bd 4c 49 76 bd d5 84 b1 3d
       0.05030407 -0.11448442 -0.060128495 0.08667914
000240 e5 fd 6a 3d f3 dd 12 be 78 d7 79 3d b3 2a 1e bd
       0.05737104 -0.1434248 0.060996503 -0.03861494
000250 9e 56 5c bd 2c 78 2a bc c5 dc b5 bd 81 59 03 bd
       -0.053793542 -0.010404628 -0.08879999 -0.03206778
000260 27 de be 3d 8d 1c 21 3e 5e 53 89 bb e0 67 a5 bd
       0.09319716 0.15733548 -0.0041908463 -0.08076453
000270 0a ef 0b 3e ec 21 2a be 4b db af 3d d9 be ab 3d
       0.13665405 -0.16614503 0.08586749 0.08386011
000280 73 49 1f be 51 17 75 bb 23 d5 e7 3d 19 28 f3 bd
       -0.15555362 -0.003739793 0.113199495 -0.118728824
000290 e0 41 f8 3d e3 78 c0 bd 7b a7 b1 3d a4 86 9b 3d
       0.1212194 -0.09398057 0.086745225 0.0759404
0002a0 75 4a a2 bb 7a d0 b9 3c 46 6a 1f bc d6 2c 68 3d
       -0.0049527236 0.022682417 -0.009729927 0.056683384
0002b0 66 6d be bc 81 20 9c 3d d4 6d 6a 3d 3a af d8 3d
       -0.023245525 0.07623387 0.057233647 0.10580297
0002c0 50 85 1b 3e ed 45 ae bc 56 72 2c 3d 1d 11 0b be
       0.15187573 -0.021273578 0.042101227 -0.13580747
0002d0 3b a2 ec 3d 2e ba b4 bd ed 0f 26 3e 83 92 f0 3d
       0.115543805 -0.088245735 0.16217013 0.11746695
0002e0 75 96 e1 bd 92 c2 88 3d 74 90 23 be 93 27 6c bd
       -0.110150255 0.06677736 -0.15973073 -0.05765493
0002f0 80 b8 1c be 29 6a 7f 3d 53 f8 00 be b0 dd 61 3d
       -0.15304756 0.0623571 -0.12594728 0.05514306
000300 96 39 1f bc 2a be d6 bb a8 2f 83 3d bc e8 e8 3c
       -0.009718319 -0.006553431 0.06405574 0.028431289
000310 19 87 34 3d 04 8d 23 3e 57 73 56 3d 61 f7 b0 3c
       0.04407415 0.15971762 0.05235609 0.021602334
000320 29 ac 40 bd ce a6 9b 3d 1f 0f 37 3d 5f 2d bc 3b
       -0.047039185 0.07600175 0.044692155 0.0057427133
000330 fd 0f 25 bd f9 d9 40 3e 2c 22 20 3e bc 4c 53 3c
       -0.04029845 0.1883315 0.15638036 0.012896713
000340 bc ea 0d 3d 58 8b ae 3d 54 4c 05 3e 71 c2 a9 3d
       0.03464769 0.085226715 0.13017398 0.0828904
000350 60 87 f1 3d 55 d3 80 3d a2 a3 2f 3e c9 2b 2a 3e
       0.11793399 0.062903084 0.17152265 0.16618265
000360 86 3c 01 3c 4f cd 21 3e 89 38 18 bd bb 54 9b 3d
       0.007887965 0.15800975 -0.03716329 0.075845204
000370 67 9f 0f 3e 30 52 a3 3d 85 09 92 3d 72 35 fc 3d
       0.14025651 0.079746604 0.07130722 0.123148814
000380 5c 48 b7 3d 79 9d 84 3d 58 91 10 3e 54 97 da bc
       0.08949348 0.06475348 0.14117944 -0.026683487
000390 9d b6 b8 3d a1 60 d0 3c d9 63 e1 3c 84 06 02 3d
       0.09019206 0.025436701 0.027513431 0.031744495
0003a0 db 4b 24 bc 8f ac 3d 3e e0 4b 8c 3d 48 6e b0 bc
       -0.010027851 0.18522857 0.068504095 -0.021536961
0003b0 ca 88 28 bc 70 a1 9f bc e0 6c 56 3e 39 b1 6d bc
       -0.010286519 -0.01948616 0.2093997 -0.014507585
0003c0 ea 0d 44 3e 80 3b 01 3e 97 b7 7c 3e 85 df 7b 3d
       0.19145933 0.12620354 0.24679409 0.06149246
0003d0 b2 ad 55 3d 20 67 9d bc 67 ff 82 3d da 70 08 3d
       0.052167602 -0.019214213 0.063963704 0.03331075
0003e0 cb 80 0c 3e cf 82 f2 3d 27 fd d3 3d d0 29 61 bc
       0.13721006 0.11841356 0.10351019 -0.013742879
0003f0 2c 60 10 bc 8d 77 b2 bc 40 b9 1b bc 0c 75 da 3d
       -0.008811992 -0.021785522 -0.009504616 0.10666856

lstm.weight_ih_l0_reverse f4 [256, 8]
000000 fb 7a 02 3e 86 f8 52 bd 2f 50 a0 bd 08 5f 07 bd
       0.12742226 -0.05150654 -0.07827794 -0.033049613
000010 81 a7 75 3c 2d cb 48 bc f5 1d 13 bd 5c 07 e8 bd
       0.014993549 -0.012255472 -0.03591724 -0.11329529
000020 1a f3 18 be ef 7a 8f bb 1e 49 98 3b 0f 57 cd 3c
       -0.14936486 -0.0043786685 0.004647388 0.025065927
000030 9b ef d2 3d 49 85 4f 3b 1e a6 da 3d 61 64 bf 3c
       0.10299607 0.0031665138 0.106762156 0.023363294
000040 27 78 37 bd 43 58 88 3c 33 7b c2 3c f8 3d dd bd
       -0.04479232 0.016643649 0.023740387 -0.10802835
000050 79 47 a0 bd 54 dc c3 bd 6c 19 42 bd dc 9a 7d bc
       -0.07826132 -0.09563509 -0.047387525 -0.015478816
000060 7a fc 91 bd a5 ff fa bc 82 41 85 3c 62 9b 32 bc
       -0.07128234 -0.030639479 0.016266588 -0.010901304
000070 28 bb ab 3d 8f 1a a2 3b e0 2a 38 3d a7 9d 7c bb
       0.083853066 0.0049470137 0.044962764 -0.0038546117
000080 54 57 39 bd 4c 4a 1d be 7d 54 a5 bd 75 f0 5f 3b
       -0.0452493 -0.15360373 -0.080727555 0.0034170423
000090 3f e8 d7 bc 5c 1c 98 3d 7f c9 23 bd b6 4e b3 bd
       -0.02635586 0.07427284 -0.039987084 -0.08755247
0000a0 d0 53 53 bd e2 f3 04 3d 9a f1 eb bd 06 ba e5 3b
       -0.0515936 0.032459147 -0.11520691 0.007010701
0000b0 d2 36 1d 3e fa 69 d0 bd 67 43 47 be 00 a0 14 3e
       0.15352944 -0.101764634 -0.19459306 0.1451416
0000c0 62 44 36 be da a3 03 be 4b 32 58 3d 54 a2 5a bd
       -0.17799523 -0.12855473 0.052782338 -0.053377464
0000d0 0b 1e 07 3e 9c 77 35 3d bc 44 34 3a 59 64 06 bd
       0.13195054 0.04430352 0.00068766973 -0.032810543
0000e0 b6 6c b3 bd f3 de 4f 3d bf 75 cb bd b6 e4 ad bc
       -0.08760969 0.05074973 -0.09934568 -0.021227222
0000f0 94 48 99 3c 1d ba 46 be 18 0a b4 bd 7f 61 bc 3c
       0.018711366 -0.19406934 -0.08790988 0.022995709
000100 96 62 82 38 a5 ca d1 3c af c8 8c 3d c2 db 1b 3e
       6.217246e-05 0.025609324 0.06874215 0.1522055
000110 ee aa 75 bb 03 12 8e bd 76 43 be 3d 46 47 a5 3c
       -0.0037485915 -0.06937029 0.09290211 0.020175587
000120 e3 49 14 be 60 65 9d 3a 3e ee 09 3e dd 16 e3 bc
       -0.1448131 0.0012008362 0.13469788 -0.027720863
000130 f7 a7 0f 3e 40 99 c0 bd 2a 4c b2 bc 8e a8 f4 3c
       0.14028917 -0.0940423 -0.021764833 0.02986553
000140 0a 9f 09 be fe e7 12 bc d9 61 c2 3c 6e 34 db bd
       -0.13439575 -0.008966444 0.023728298 -0.107033595
000150 e7 68 96 3c 6a d7 c1 bd 5c 2f 67 be 64 40 54 3e
       0.018360568 -0.09464915 -0.2257666 0.20727688
000160 b1 e5 1a be a7 97 8b bd 56 46 df 3d 32 72 29 3e
       -0.15126683 -0.06816035 0.109020874 0.16547468
000170 53 c6 67 3c 31 ee 0a 3d e3 cf a3 bc 8c e3 38 3e
       0.014146405 0.033918563 -0.019996589 0.18055552
000180 02 37 2e 3e 29 98 3b bd b5 a7 63 3d 7c ee 04 bc
       0.17013171 -0.045799408 0.05557986 -0.0081135
000190 65 39 95 3d 8d c5 b2 3c 1a a2 4c be 7d 8b 15 be
       0.07286338 0.021822715 -0.19983712 -0.14603992
0001a0 b7 5c f9 bd 0d f8 b0 bd 35 db fe bc 8d a6 0e be
       -0.12175887 -0.08641062 -0.031110385 -0.13930722
0001b0 44 15 b9 3d 1e a6 5a 3c 2a 84 d7 3b 38 e5 50 3e
       0.09037259 0.0133452695 0.0065770345 0.2039994
0001c0 12 d2 90 3d e2 d2 47 3d 5c 0c f1 b9 46 45 21 be
       0.07071318 0.048785098 -0.0004597631 -0.15749082
0001d0 a4 53 95 3d 15 6d ac bc 94 a4 3e bd a6 92 27 bd
       0.07291344 -0.021048108 -0.046543673 -0.04091134
0001e0 57 fe 43 be 53 97 18 3d 57 dd 29 bd 85 24 f4 bc
       -0.19139992 0.03725369 -0.04147085 -0.02980257
0001f0 ad 92 aa 3d 10 51 b8 bb 01 92 5d 3d 05 25 20 ba
       0.083287574 -0.005624898 0.05409432 -0.0006109032
000200 4d d5 88 bd 74 03 dc 3d 82 02 4d 3d 8c 12 75 bd
       -0.06681309 0.10742846 0.05005122 -0.05983214
000210 30 e8 de bd c3 5d 55 bd 18 e0 de bd 8c 39 40 bd
       -0.1088413 -0.05209137 -0.10882586 -0.04692988
000220 22 66 31 be 93 08 39 be a0 fe ca bd 7e 6b f5 bc
       -0.17324117 -0.18069677 -0.09911847 -0.029958483
000230 bd 07 8e 3c be ad 8f 3d 5d 1e 09 3d 1b e4 6b 3d
       0.017337674 0.070155606 0.033476222 0.057590585
000240 fc b2 00 be f7 00 61 bd cd 39 3a be 78 bc f6 bc
       -0.12568277 -0.05493256 -0.18186112 -0.030119166
000250 15 53 a3 3c 4f de df bd ad ef 80 be 0f 80 32 3e
       0.019937078 -0.10931074 -0.25182858 0.17431663
000260 f0 9f 4e bd 94 f8 35 bb 59 56 7f 3d 04 96 e3 3d
       -0.050445497 -0.0027766572 0.062338207 0.111125976
000270 be 5a 2a 3e 3c 6f c2 bd f9 f3 98 3d 15 07 b7 3d
       0.16636178 -0.094938725 0.07468409 0.08936898
000280 07 0d 1e be 68 36 c7 bd 19 25 9d 3d 12 2d 90 bd
       -0.15434657 -0.09727174 0.076730914 -0.070398465
000290 58 05 ca 3d 40 9e e8 bd e8 67 6b 3d d7 82 f8 3d
       0.098643005 -0.11358309 0.05747214 0.12134331
0002a0 ae 15 d4 bc 58 91 0c be 4a 15 f4 bc 7b 03 0e bc
       -0.025889244 -0.13727319 -0.029795308 -0.008667822
0002b0 07 4b 9f 3c 71 f3 f9 bd 38 4c 54 be ff fa de 3d
       0.019444956 -0.12204636 -0.207322 0.108877175
0002c0 c5 4c 8d 3d a2 f3 11 3e c2 85 f2 3d 40 d1 06 3e
       0.06899408 0.14253095 0.118419185 0.1316576
0002d0 c2 bf 91 3d a0 94 0b 3e fd 1e 33 be 99 ef ae bc
       0.07116653 0.13630915 -0.1749229 -0.021354483
0002e0 a1 bb 28 bd 8c 50 05 be d8 b9 db 3d 1f d6 79 bd
       -0.041194562 -0.13019007 0.10728806 -0.060995217
0002f0 ec f5 67 bd fa d0 25 bd 46 e4 fd 3d 67 49 d7 3d
       -0.056631014 -0.0404825 0.12397055 0.10512047
000300 73 10 17 be 7d 5e f8 3d d9 19 11 3e 37 5b 8b 3d
       -0.14752369 0.12127397 0.14170016 0.06804507
000310 00 99 5d bd dd 66 18 3d 13 c7 e3 bd 18 b5 82 bd
       -0.05410099 0.037207473 -0.11121955 -0.06382197
000320 71 05 14 be ef 65 36 be 5f 21 24 be e3 83 67 be
       -0.144552 -0.17812322 -0.16028355 -0.22608905
000330 23 49 bd 3d e7 53 0a be d6 c6 24 be bf 24 53 3d
       0.09242465 -0.13508569 -0.16091475 0.051548716
000340 f3 87 0b 3d 52 d5 40 bd bd 4d 5f 3d 62 51 15 3e
       0.0340652 -0.047078438 0.054517496 0.14581826
000350 f9 a4 34 3d 09 d9 91 3d f1 6e c8 3d 18 65 4f bd
       0.044102643 0.07121474 0.097867854 -0.05063352
000360 24 82 56 bd 4f 16 9d 3d 23 97 10 3e b6 4d 94 3c
       -0.052370206 0.07670271 0.14120154 0.018103462
000370 06 0e 45 3d 10 72 2a 3e 6e 5c 9f bd 72 ca 26 3e
       0.048109077 0.16645074 -0.077813014 0.16288164
000380 04 77 76 3c f5 94 7d bd 6d ea af 3d 9c c1 8d bd
       0.015043024 -0.061909635 0.08589635 -0.06921694
000390 a6 ec d9 bd a0 3b c3 bc 77 9e 8d bd 2e 99 d9 ba
       -0.1064084 -0.023832142 -0.069149904 -0.0016601437
0003a0 e6 88 9b 3d d0 19 80 bc 57 21 ca 3d c8 cd 02 be
       0.07594471 -0.015637308 0.0986964 -0.12773812
0003b0 6e 59 7f bc 4b ea 2f bc 26 43 18 bd 94 8a b6 3d
       -0.015585287 -0.010737012 -0.037173413 0.089131504
0003c0 2c 95 83 bd 7f 2b 81 bc a9 61 11 3d 07 da 76 3c
       -0.06424937 -0.01576781 0.035493527 0.01506663
0003d0 3f 3d 6c bd c0 d7 fe 3d 04 0d 32 3d ed 8d 04 3e
       -0.057675596 0.12443495 0.043469444 0.12944765
0003e0 bd 06 d7 bd 17 bb f1 bc db 43 f2 3c 99 57 d0 bc
       -0.10499332 -0.029508157 0.029573372 -0.025432395
0003f0 f5 b4 16 3d 59 fa ad bd 4a fd 10 be 03 6f de bc
       0.036793668 -0.08495016 -0.14159122 -0.027152544

lstm.weight_hh_l0_reverse f4 [256, 64]
000000 36 f0 88 bd b5 bd 8b bd 43 15 07 bc 82 36 46 3a
       -0.066864416 -0.06823293 -0.008244815 0.0007561223
000010 ff 23 d6 bd 8b a5 13 be 56 db b7 bc da 56 32 bd
       -0.104560845 -0.14418618 -0.022443455 -0.04353986
000020 d4 13 9d bd c6 4c 70 bd b5 96 de bd 04 d0 91 bd
       -0.076697975 -0.058666967 -0.10868589 -0.07119754
000030 14 35 b3 bd 0d c6 9b bc 37 94 4c bd 80 b5 d0 bd
       -0.08750358 -0.019015336 -0.049946036 -0.101908684
000040 6a e0 c1 3d af ff f0 3d 47 af 77 3c 44 87 70 3d
       0.09466632 0.11767518 0.015117473 0.05872275
000050 02 ea 80 bd 00 db 78 3d ed fd f7 bd 06 24 f5 3d
       -0.062946334 0.06075573 -0.121089794 0.119697616
000060 03 f1 d0 3c 82 79 ee 3d db 41 4e bd 00 01 e4 3c
       0.025505548 0.116442695 -0.050355773 0.027832508
000070 75 04 f5 3d b9 54 f3 3c 9e 8f 54 bd 4d 78 8d bd
       0.11963741 0.029703485 -0.051894777 -0.06907711
000080 e6 0c 8e 3d 1d 2e 8a bd 1a 46 90 3c 89 85 e5 3b
       0.06936054 -0.06747077 0.017611552 0.007004444
000090 a5 98 33 3d 7c 7c 70 3d 66 98 f5 bc b7 b3 e4 bd
       0.043846745 0.058712468 -0.029979896 -0.111670904
0000a0 0b 44 f7 bd 52 f5 43 be d8 70 e7 3d f3 0c b6 3d
       -0.12073525 -0.19136551 0.1130082 0.088891886
0000b0 fa 5c 4f 3d 37 71 4c 3d 82 3c 5c bb 4c 3d 2c 3d
       0.05062578 0.049912658 -0.0033605401 0.042050645
0000c0 53 9f 71 3e da 61 f4 bc 91 88 0d 3c 0f 7d ae bc
       0.23595934 -0.029831816 0.008638517 -0.021299867
0000d0 f4 14 81 3d 6b 0d d6 bc db 13 c4 bd 7b 1a d5 bd
       0.063028246 -0.026129445 -0.095741 -0.104054414
0000e0 f6 da 61 ba f8 14 6e 3d de a4 cb 3c 32 d8 e5 3d
       -0.00086156966 0.058125466 0.024858888 0.112228766
0000f0 0c f8 89 bd 94 f0 e1 3c c4 ab 95 bb d0 4c 0c be
       -0.06736764 0.027580537 -0.004567595 -0.13701177
000100 19 c2 70 3d b1 f1 0f 3c f8 48 85 3d b2 99 ac bd
       0.058778856 0.008785651 0.06508058 -0.084277526
000110 6f 69 82 3d 0e 82 bc 3d dc 5b dc bd d3 fd 06 be
       0.06367766 0.092044935 -0.10759708 -0.13182764
000120 95 e5 db bc ea 46 a8 3d ea b9 4f bc b5 fa a7 bd
       -0.026842872 0.08216651 -0.012678603 -0.082021154
000130 09 80 1c 3e ef 59 0e be 3b 3b b9 3c f8 1b 0d 3e
       0.15283217 -0.13901494 0.022611251 0.137802
000140 d2 66 dc bd e4 2d ec bc 99 c0 c5 3c bd 5b 89 3d
       -0.10761799 -0.028830476 0.02413969 0.06706951
000150 9f 6b e9 3d 93 c6 f1 3d f8 6b 27 be 5e 63 69 bd
       0.1139748 0.11805453 -0.1634978 -0.05697953
000160 04 24 9a 3b e3 48 f0 bc 28 a3 95 3d 0f 92 9a bd
       0.0047040004 -0.02933163 0.0730651 -0.0754739
000170 cc 6a 29 3d e9 b8 06 bd 7b 44 00 be ae d5 19 be
       0.041361615 -0.032891188 -0.12526123 -0.15022919
000180 00 20 ef 3b 1e 5e 05 be 01 94 52 bd 03 16 5a 3d
       0.007297516 -0.13024184 -0.05141068 0.05324365
000190 7a c6 3d bd 53 94 a7 3d 6a d9 e4 bd 89 e7 92 3d
       -0.04633186 0.081825875 -0.11174281 0.07173068
0001a0 53 8b c7 3d b2 b0 73 bd f2 7b bc bd d7 6f 91 bd
       0.09743371 -0.05949468 -0.09203328 -0.0710141
0001b0 6b b1 10 be 3b b8 19 3d 94 a3 c4 bc 45 16 cb bd
       -0.1413018 0.03752921 -0.024003781 -0.09916357
0001c0 53 05 01 bd ef e9 80 bd 09 b2 c4 bd db 15 23 be
       -0.03149922 -0.06294619 -0.0960427 -0.15926306
0001d0 ea 05 1b 3e 84 3e 05 3d 0d 46 82 3d 58 db 14 be
       0.15138975 0.032530323 0.063610174 -0.14536798
0001e0 f6 97 a1 3d f9 fd c0 bd 86 70 93 bc 61 93 f2 3d
       0.078903124 -0.094234414 -0.017997991 0.118445165
0001f0 1a 08 55 3d 58 02 00 3d 32 91 8c bd 17 89 dc 3d
       0.05200968 0.031252235 -0.06863631 0.10768335
000200 b2 10 93 3d 5c 2c 36 be f0 e3 2e bd e8 c0 ba bd
       0.07180919 -0.1779036 -0.042697847 -0.09118825
000210 03 00 46 bd 09 fc 42 bd 5d 03 26 bb f8 03 92 bd
       -0.048339855 -0.04760364 -0.0025331595 -0.07129663
000220 ec ad dd bc ec 94 b4 b9 bb 19 1e be af 0c 18 be
       -0.027060471 -0.0003444323 -0.15439503 -0.14848588
000230 74 37 a3 3d 79 03 0f bc 13 f1 88 3d b0 44 dc bc
       0.07969561 -0.008728855 0.06686606 -0.026888222
000240 7e 25 f5 3d cb 17 01 3e 49 2b 3b 3e 34 ee cc 3c
       0.11970042 0.12606733 0.1827823 0.025015928
000250 a0 be 29 3e 09 3b 03 3e 7a c6 42 be bc fc 22 bc
       0.16576624 0.12815489 -0.19021025 -0.009947952
000260 1b 62 68 3d 12 dc e7 3d f8 64 30 3d 74 08 e2 bd
       0.056734186 0.11321272 0.04306504 -0.110367686
000270 73 88 8b bb ef 65 65 bd b1 9c 43 bc d6 6f e5 bd
       -0.0042582094 -0.056005415 -0.011939214 -0.11202972
000280 e1 61 d2 bc 0b 23 97 bd 6f 7e d9 3d fb 94 f6 bd
       -0.025681438 -0.07379731 0.106198184 -0.120401345
000290 ce 29 46 be 45 c2 a1 ba ff 7b 34 be 2b 1d cf bd
       -0.19351885 -0.0012341222 -0.17625426 -0.10112985
0002a0 d0 c0 b8 bc 8f 78 6b 3a e5 c6 eb bd 50 41 33 3d
       -0.022552878 0.0008982503 -0.115125455 0.04376346
0002b0 a6 43 3a bd 05 2b 89 bd 00 27 07 bd 24 90 da bd
       -0.04547467 -0.066976584 -0.032996178 -0.10672024
0002c0 02 12 de 3d e3 5e e4 bd c9 02 c4 bd b4 d7 02 be
       0.108432785 -0.11150911 -0.09570844 -0.12777597
0002d0 32 21 1b 3d f7 6c 38 3b 6e b1 1b bd 2d 61 55 bd
       0.037873454 0.002814112 -0.038011007 -0.052094627
0002e0 36 59 2b 3b 55 0b 96 bd 2c 6d 8e bc c5 bf af bc
       0.0026145703 -0.0732638 -0.017386042 -0.021453748
0002f0 b9 66 11 3e 7b 17 33 3d 2e a7 a5 bd be 20 cd 3c
       0.14199342 0.043723565 -0.080885276 0.025040027
000300 76 bc c4 bd 61 83 12 3d cb b7 61 bc d0 fd d0 ba
       -0.096062586 0.035769824 -0.01377673 -0.0015944783
000310 c3 f9 2d 3e 19 2f 93 bd 2e e4 33 3d 1a 3a 97 bc
       0.16989808 -0.071867175 0.04391878 -0.018460322
000320 06 85 5d 3d 46 49 58 3e dc e9 de 3a 95 75 e4 3c
       0.05408194 0.21121702 0.0017006951 0.027888099
000330 a6 44 4a 3e b8 54 14 3d 7e a0 91 bd bd 2f b5 3d
       0.1975275 0.036213607 -0.071106896 0.08846996
000340 d0 06 52 bc 1e e1 72 bd ce a5 34 3e ae 17 81 3d
       -0.012819007 -0.05929672 0.17641374 0.06303345
000350 de 7b 16 3d 0e 6c b6 3d 71 2f 19 3d 58 b0 62 bd
       0.036739223 0.089073285 0.03739876 -0.055343956
000360 e7 4e 9a bd c5 ca ec bb 71 11 ae 3d 6b ea 70 3c
       -0.07534581 -0.0072263204 0.084994204 0.014704327
000370 f5 4b 0d 3c 63 ae 88 bd 90 e8 79 3c 6a 1e db bd
       0.008624067 -0.066738866 0.015253201 -0.106991604
000380 0f 7a 18 3e 0c 33 be bd 84 88 a3 bd 97 2a 42 bd
       0.14890312 -0.0928708 -0.07985023 -0.047403898
000390 a3 e8 a3 bd 2c 0b 48 3d 24 2e be bd 6c 05 01 be
       -0.08003356 0.04883878 -0.092861444 -0.12599725
0003a0 71 6a 98 bc 89 1c 96 bc 64 4d b0 bc 7d 64 bc 3d
       -0.018605443 -0.018324153 -0.021521278 0.09198854
0003b0 37 c9 71 3d e9 f0 db bc 81 74 15 3d 7e 91 50 3d
       0.059029784 -0.026848273 0.03648806 0.050920002
0003c0 77 91 b4 bc c5 9e 61 bd 2f f8 bb bd 73 a0 dc bd
       -0.02204202 -0.055083055 -0.09178197 -0.10772791
0003d0 e0 3b 81 3d 46 da cb bb 27 cc 91 bd 52 e2 05 be
       0.063102484 -0.0062210886 -0.07119017 -0.13074616
0003e0 7a 5e 67 3d cd f9 85 bd 02 aa 36 3e b7 78 11 bd
       0.056486584 -0.06541786 0.1783829 -0.035515513
0003f0 df 66 b5 bd f0 a9 82 bd 65 73 bf bd 71 9d 73 3d
       -0.08857512 -0.06380069 -0.09348182 0.05947632
